<?xml version="1.0" ?>
<net batch="1" name="person-attributes-recognition-crossroad-0031" version="3">
	<layers>
		<layer id="0" name="data" precision="FP32" type="Input">
			<output>
				<port id="0">
					<dim>1</dim>
					<dim>3</dim>
					<dim>160</dim>
					<dim>80</dim>
				</port>
			</output>
		</layer>
		<layer id="1" name="Mul_/Fused_Mul_/FusedScaleShift_" precision="FP32" type="ScaleShift">
			<input>
				<port id="0">
					<dim>1</dim>
					<dim>3</dim>
					<dim>160</dim>
					<dim>80</dim>
				</port>
			</input>
			<output>
				<port id="3">
					<dim>1</dim>
					<dim>3</dim>
					<dim>160</dim>
					<dim>80</dim>
				</port>
			</output>
			<blobs>
				<weights offset="0" size="12"/>
				<biases offset="12" size="12"/>
			</blobs>
		</layer>
		<layer id="2" name="conv1_1/conv" precision="FP32" type="Convolution">
			<data dilations="1,1" group="1" kernel="7,7" output="16" pads_begin="3,3" pads_end="3,3" strides="2,2"/>
			<input>
				<port id="0">
					<dim>1</dim>
					<dim>3</dim>
					<dim>160</dim>
					<dim>80</dim>
				</port>
			</input>
			<output>
				<port id="3">
					<dim>1</dim>
					<dim>16</dim>
					<dim>80</dim>
					<dim>40</dim>
				</port>
			</output>
			<blobs>
				<weights offset="24" size="9408"/>
				<biases offset="9432" size="64"/>
			</blobs>
		</layer>
		<layer id="3" name="conv1_1/neg" precision="FP32" type="Power">
			<data power="1.0" scale="-1.0" shift="0.0"/>
			<input>
				<port id="0">
					<dim>1</dim>
					<dim>16</dim>
					<dim>80</dim>
					<dim>40</dim>
				</port>
			</input>
			<output>
				<port id="1">
					<dim>1</dim>
					<dim>16</dim>
					<dim>80</dim>
					<dim>40</dim>
				</port>
			</output>
		</layer>
		<layer id="4" name="conv1_1/concat" precision="FP32" type="Concat">
			<data axis="1"/>
			<input>
				<port id="0">
					<dim>1</dim>
					<dim>16</dim>
					<dim>80</dim>
					<dim>40</dim>
				</port>
				<port id="1">
					<dim>1</dim>
					<dim>16</dim>
					<dim>80</dim>
					<dim>40</dim>
				</port>
			</input>
			<output>
				<port id="2">
					<dim>1</dim>
					<dim>32</dim>
					<dim>80</dim>
					<dim>40</dim>
				</port>
			</output>
		</layer>
		<layer id="5" name="conv1_1/scale/Mul_/FusedScaleShift_" precision="FP32" type="ScaleShift">
			<input>
				<port id="0">
					<dim>1</dim>
					<dim>32</dim>
					<dim>80</dim>
					<dim>40</dim>
				</port>
			</input>
			<output>
				<port id="3">
					<dim>1</dim>
					<dim>32</dim>
					<dim>80</dim>
					<dim>40</dim>
				</port>
			</output>
			<blobs>
				<weights offset="9496" size="128"/>
				<biases offset="9624" size="128"/>
			</blobs>
		</layer>
		<layer id="6" name="conv1_1/relu" precision="FP32" type="ReLU">
			<data negative_slope="0.0"/>
			<input>
				<port id="0">
					<dim>1</dim>
					<dim>32</dim>
					<dim>80</dim>
					<dim>40</dim>
				</port>
			</input>
			<output>
				<port id="1">
					<dim>1</dim>
					<dim>32</dim>
					<dim>80</dim>
					<dim>40</dim>
				</port>
			</output>
		</layer>
		<layer id="7" name="pool1" precision="FP32" type="Pooling">
			<data exclude-pad="false" kernel="3,3" pads_begin="0,0" pads_end="0,0" pool-method="max" rounding_type="ceil" strides="2,2"/>
			<input>
				<port id="0">
					<dim>1</dim>
					<dim>32</dim>
					<dim>80</dim>
					<dim>40</dim>
				</port>
			</input>
			<output>
				<port id="1">
					<dim>1</dim>
					<dim>32</dim>
					<dim>40</dim>
					<dim>20</dim>
				</port>
			</output>
		</layer>
		<layer id="8" name="conv2_1/1/conv" precision="FP32" type="Convolution">
			<data dilations="1,1" group="1" kernel="1,1" output="24" pads_begin="0,0" pads_end="0,0" strides="1,1"/>
			<input>
				<port id="0">
					<dim>1</dim>
					<dim>32</dim>
					<dim>40</dim>
					<dim>20</dim>
				</port>
			</input>
			<output>
				<port id="3">
					<dim>1</dim>
					<dim>24</dim>
					<dim>40</dim>
					<dim>20</dim>
				</port>
			</output>
			<blobs>
				<weights offset="9752" size="3072"/>
				<biases offset="12824" size="96"/>
			</blobs>
		</layer>
		<layer id="9" name="conv2_1/2/relu" precision="FP32" type="ReLU">
			<data negative_slope="0.0"/>
			<input>
				<port id="0">
					<dim>1</dim>
					<dim>24</dim>
					<dim>40</dim>
					<dim>20</dim>
				</port>
			</input>
			<output>
				<port id="1">
					<dim>1</dim>
					<dim>24</dim>
					<dim>40</dim>
					<dim>20</dim>
				</port>
			</output>
		</layer>
		<layer id="10" name="conv2_1/2/conv" precision="FP32" type="Convolution">
			<data dilations="1,1" group="1" kernel="3,3" output="24" pads_begin="1,1" pads_end="1,1" strides="1,1"/>
			<input>
				<port id="0">
					<dim>1</dim>
					<dim>24</dim>
					<dim>40</dim>
					<dim>20</dim>
				</port>
			</input>
			<output>
				<port id="3">
					<dim>1</dim>
					<dim>24</dim>
					<dim>40</dim>
					<dim>20</dim>
				</port>
			</output>
			<blobs>
				<weights offset="12920" size="20736"/>
				<biases offset="33656" size="96"/>
			</blobs>
		</layer>
		<layer id="11" name="conv2_1/3/neg" precision="FP32" type="Power">
			<data power="1.0" scale="-1.0" shift="0.0"/>
			<input>
				<port id="0">
					<dim>1</dim>
					<dim>24</dim>
					<dim>40</dim>
					<dim>20</dim>
				</port>
			</input>
			<output>
				<port id="1">
					<dim>1</dim>
					<dim>24</dim>
					<dim>40</dim>
					<dim>20</dim>
				</port>
			</output>
		</layer>
		<layer id="12" name="conv2_1/3/concat" precision="FP32" type="Concat">
			<data axis="1"/>
			<input>
				<port id="0">
					<dim>1</dim>
					<dim>24</dim>
					<dim>40</dim>
					<dim>20</dim>
				</port>
				<port id="1">
					<dim>1</dim>
					<dim>24</dim>
					<dim>40</dim>
					<dim>20</dim>
				</port>
			</input>
			<output>
				<port id="2">
					<dim>1</dim>
					<dim>48</dim>
					<dim>40</dim>
					<dim>20</dim>
				</port>
			</output>
		</layer>
		<layer id="13" name="conv2_1/3/scale/Mul_/FusedScaleShift_" precision="FP32" type="ScaleShift">
			<input>
				<port id="0">
					<dim>1</dim>
					<dim>48</dim>
					<dim>40</dim>
					<dim>20</dim>
				</port>
			</input>
			<output>
				<port id="3">
					<dim>1</dim>
					<dim>48</dim>
					<dim>40</dim>
					<dim>20</dim>
				</port>
			</output>
			<blobs>
				<weights offset="33752" size="192"/>
				<biases offset="33944" size="192"/>
			</blobs>
		</layer>
		<layer id="14" name="conv2_1/3/relu" precision="FP32" type="ReLU">
			<data negative_slope="0.0"/>
			<input>
				<port id="0">
					<dim>1</dim>
					<dim>48</dim>
					<dim>40</dim>
					<dim>20</dim>
				</port>
			</input>
			<output>
				<port id="1">
					<dim>1</dim>
					<dim>48</dim>
					<dim>40</dim>
					<dim>20</dim>
				</port>
			</output>
		</layer>
		<layer id="15" name="conv2_1/3/conv" precision="FP32" type="Convolution">
			<data dilations="1,1" group="1" kernel="1,1" output="64" pads_begin="0,0" pads_end="0,0" strides="1,1"/>
			<input>
				<port id="0">
					<dim>1</dim>
					<dim>48</dim>
					<dim>40</dim>
					<dim>20</dim>
				</port>
			</input>
			<output>
				<port id="3">
					<dim>1</dim>
					<dim>64</dim>
					<dim>40</dim>
					<dim>20</dim>
				</port>
			</output>
			<blobs>
				<weights offset="34136" size="12288"/>
				<biases offset="46424" size="256"/>
			</blobs>
		</layer>
		<layer id="16" name="conv2_1/proj" precision="FP32" type="Convolution">
			<data dilations="1,1" group="1" kernel="1,1" output="64" pads_begin="0,0" pads_end="0,0" strides="1,1"/>
			<input>
				<port id="0">
					<dim>1</dim>
					<dim>32</dim>
					<dim>40</dim>
					<dim>20</dim>
				</port>
			</input>
			<output>
				<port id="3">
					<dim>1</dim>
					<dim>64</dim>
					<dim>40</dim>
					<dim>20</dim>
				</port>
			</output>
			<blobs>
				<weights offset="46680" size="8192"/>
				<biases offset="46424" size="256"/>
			</blobs>
		</layer>
		<layer id="17" name="conv2_1" precision="FP32" type="Eltwise">
			<data coeff="1.0,1.0" operation="sum"/>
			<input>
				<port id="0">
					<dim>1</dim>
					<dim>64</dim>
					<dim>40</dim>
					<dim>20</dim>
				</port>
				<port id="1">
					<dim>1</dim>
					<dim>64</dim>
					<dim>40</dim>
					<dim>20</dim>
				</port>
			</input>
			<output>
				<port id="2">
					<dim>1</dim>
					<dim>64</dim>
					<dim>40</dim>
					<dim>20</dim>
				</port>
			</output>
		</layer>
		<layer id="18" name="Mul_921/Fused_Mul_/FusedScaleShift_" precision="FP32" type="ScaleShift">
			<input>
				<port id="0">
					<dim>1</dim>
					<dim>64</dim>
					<dim>40</dim>
					<dim>20</dim>
				</port>
			</input>
			<output>
				<port id="3">
					<dim>1</dim>
					<dim>64</dim>
					<dim>40</dim>
					<dim>20</dim>
				</port>
			</output>
			<blobs>
				<weights offset="54872" size="256"/>
				<biases offset="55128" size="256"/>
			</blobs>
		</layer>
		<layer id="19" name="conv2_2/1/relu" precision="FP32" type="ReLU">
			<data negative_slope="0.0"/>
			<input>
				<port id="0">
					<dim>1</dim>
					<dim>64</dim>
					<dim>40</dim>
					<dim>20</dim>
				</port>
			</input>
			<output>
				<port id="1">
					<dim>1</dim>
					<dim>64</dim>
					<dim>40</dim>
					<dim>20</dim>
				</port>
			</output>
		</layer>
		<layer id="20" name="conv2_2/1/conv" precision="FP32" type="Convolution">
			<data dilations="1,1" group="1" kernel="1,1" output="24" pads_begin="0,0" pads_end="0,0" strides="1,1"/>
			<input>
				<port id="0">
					<dim>1</dim>
					<dim>64</dim>
					<dim>40</dim>
					<dim>20</dim>
				</port>
			</input>
			<output>
				<port id="3">
					<dim>1</dim>
					<dim>24</dim>
					<dim>40</dim>
					<dim>20</dim>
				</port>
			</output>
			<blobs>
				<weights offset="55384" size="6144"/>
				<biases offset="61528" size="96"/>
			</blobs>
		</layer>
		<layer id="21" name="conv2_2/2/relu" precision="FP32" type="ReLU">
			<data negative_slope="0.0"/>
			<input>
				<port id="0">
					<dim>1</dim>
					<dim>24</dim>
					<dim>40</dim>
					<dim>20</dim>
				</port>
			</input>
			<output>
				<port id="1">
					<dim>1</dim>
					<dim>24</dim>
					<dim>40</dim>
					<dim>20</dim>
				</port>
			</output>
		</layer>
		<layer id="22" name="conv2_2/2/conv" precision="FP32" type="Convolution">
			<data dilations="1,1" group="1" kernel="3,3" output="24" pads_begin="1,1" pads_end="1,1" strides="1,1"/>
			<input>
				<port id="0">
					<dim>1</dim>
					<dim>24</dim>
					<dim>40</dim>
					<dim>20</dim>
				</port>
			</input>
			<output>
				<port id="3">
					<dim>1</dim>
					<dim>24</dim>
					<dim>40</dim>
					<dim>20</dim>
				</port>
			</output>
			<blobs>
				<weights offset="61624" size="20736"/>
				<biases offset="82360" size="96"/>
			</blobs>
		</layer>
		<layer id="23" name="conv2_2/3/neg" precision="FP32" type="Power">
			<data power="1.0" scale="-1.0" shift="0.0"/>
			<input>
				<port id="0">
					<dim>1</dim>
					<dim>24</dim>
					<dim>40</dim>
					<dim>20</dim>
				</port>
			</input>
			<output>
				<port id="1">
					<dim>1</dim>
					<dim>24</dim>
					<dim>40</dim>
					<dim>20</dim>
				</port>
			</output>
		</layer>
		<layer id="24" name="conv2_2/3/concat" precision="FP32" type="Concat">
			<data axis="1"/>
			<input>
				<port id="0">
					<dim>1</dim>
					<dim>24</dim>
					<dim>40</dim>
					<dim>20</dim>
				</port>
				<port id="1">
					<dim>1</dim>
					<dim>24</dim>
					<dim>40</dim>
					<dim>20</dim>
				</port>
			</input>
			<output>
				<port id="2">
					<dim>1</dim>
					<dim>48</dim>
					<dim>40</dim>
					<dim>20</dim>
				</port>
			</output>
		</layer>
		<layer id="25" name="conv2_2/3/scale/Mul_/FusedScaleShift_" precision="FP32" type="ScaleShift">
			<input>
				<port id="0">
					<dim>1</dim>
					<dim>48</dim>
					<dim>40</dim>
					<dim>20</dim>
				</port>
			</input>
			<output>
				<port id="3">
					<dim>1</dim>
					<dim>48</dim>
					<dim>40</dim>
					<dim>20</dim>
				</port>
			</output>
			<blobs>
				<weights offset="82456" size="192"/>
				<biases offset="82648" size="192"/>
			</blobs>
		</layer>
		<layer id="26" name="conv2_2/3/relu" precision="FP32" type="ReLU">
			<data negative_slope="0.0"/>
			<input>
				<port id="0">
					<dim>1</dim>
					<dim>48</dim>
					<dim>40</dim>
					<dim>20</dim>
				</port>
			</input>
			<output>
				<port id="1">
					<dim>1</dim>
					<dim>48</dim>
					<dim>40</dim>
					<dim>20</dim>
				</port>
			</output>
		</layer>
		<layer id="27" name="conv2_2/3/conv" precision="FP32" type="Convolution">
			<data dilations="1,1" group="1" kernel="1,1" output="64" pads_begin="0,0" pads_end="0,0" strides="1,1"/>
			<input>
				<port id="0">
					<dim>1</dim>
					<dim>48</dim>
					<dim>40</dim>
					<dim>20</dim>
				</port>
			</input>
			<output>
				<port id="3">
					<dim>1</dim>
					<dim>64</dim>
					<dim>40</dim>
					<dim>20</dim>
				</port>
			</output>
			<blobs>
				<weights offset="82840" size="12288"/>
				<biases offset="46424" size="256"/>
			</blobs>
		</layer>
		<layer id="28" name="conv2_2/input" precision="FP32" type="Power">
			<data power="1.0" scale="1.0" shift="0.0"/>
			<input>
				<port id="0">
					<dim>1</dim>
					<dim>64</dim>
					<dim>40</dim>
					<dim>20</dim>
				</port>
			</input>
			<output>
				<port id="1">
					<dim>1</dim>
					<dim>64</dim>
					<dim>40</dim>
					<dim>20</dim>
				</port>
			</output>
		</layer>
		<layer id="29" name="conv2_2" precision="FP32" type="Eltwise">
			<data coeff="1.0,1.0" operation="sum"/>
			<input>
				<port id="0">
					<dim>1</dim>
					<dim>64</dim>
					<dim>40</dim>
					<dim>20</dim>
				</port>
				<port id="1">
					<dim>1</dim>
					<dim>64</dim>
					<dim>40</dim>
					<dim>20</dim>
				</port>
			</input>
			<output>
				<port id="2">
					<dim>1</dim>
					<dim>64</dim>
					<dim>40</dim>
					<dim>20</dim>
				</port>
			</output>
		</layer>
		<layer id="30" name="Mul_822/Fused_Mul_/FusedScaleShift_" precision="FP32" type="ScaleShift">
			<input>
				<port id="0">
					<dim>1</dim>
					<dim>64</dim>
					<dim>40</dim>
					<dim>20</dim>
				</port>
			</input>
			<output>
				<port id="3">
					<dim>1</dim>
					<dim>64</dim>
					<dim>40</dim>
					<dim>20</dim>
				</port>
			</output>
			<blobs>
				<weights offset="95128" size="256"/>
				<biases offset="95384" size="256"/>
			</blobs>
		</layer>
		<layer id="31" name="conv2_3/1/relu" precision="FP32" type="ReLU">
			<data negative_slope="0.0"/>
			<input>
				<port id="0">
					<dim>1</dim>
					<dim>64</dim>
					<dim>40</dim>
					<dim>20</dim>
				</port>
			</input>
			<output>
				<port id="1">
					<dim>1</dim>
					<dim>64</dim>
					<dim>40</dim>
					<dim>20</dim>
				</port>
			</output>
		</layer>
		<layer id="32" name="conv2_3/1/conv" precision="FP32" type="Convolution">
			<data dilations="1,1" group="1" kernel="1,1" output="24" pads_begin="0,0" pads_end="0,0" strides="1,1"/>
			<input>
				<port id="0">
					<dim>1</dim>
					<dim>64</dim>
					<dim>40</dim>
					<dim>20</dim>
				</port>
			</input>
			<output>
				<port id="3">
					<dim>1</dim>
					<dim>24</dim>
					<dim>40</dim>
					<dim>20</dim>
				</port>
			</output>
			<blobs>
				<weights offset="95640" size="6144"/>
				<biases offset="101784" size="96"/>
			</blobs>
		</layer>
		<layer id="33" name="conv2_3/2/relu" precision="FP32" type="ReLU">
			<data negative_slope="0.0"/>
			<input>
				<port id="0">
					<dim>1</dim>
					<dim>24</dim>
					<dim>40</dim>
					<dim>20</dim>
				</port>
			</input>
			<output>
				<port id="1">
					<dim>1</dim>
					<dim>24</dim>
					<dim>40</dim>
					<dim>20</dim>
				</port>
			</output>
		</layer>
		<layer id="34" name="conv2_3/2/conv" precision="FP32" type="Convolution">
			<data dilations="1,1" group="1" kernel="3,3" output="24" pads_begin="1,1" pads_end="1,1" strides="1,1"/>
			<input>
				<port id="0">
					<dim>1</dim>
					<dim>24</dim>
					<dim>40</dim>
					<dim>20</dim>
				</port>
			</input>
			<output>
				<port id="3">
					<dim>1</dim>
					<dim>24</dim>
					<dim>40</dim>
					<dim>20</dim>
				</port>
			</output>
			<blobs>
				<weights offset="101880" size="20736"/>
				<biases offset="122616" size="96"/>
			</blobs>
		</layer>
		<layer id="35" name="conv2_3/3/neg" precision="FP32" type="Power">
			<data power="1.0" scale="-1.0" shift="0.0"/>
			<input>
				<port id="0">
					<dim>1</dim>
					<dim>24</dim>
					<dim>40</dim>
					<dim>20</dim>
				</port>
			</input>
			<output>
				<port id="1">
					<dim>1</dim>
					<dim>24</dim>
					<dim>40</dim>
					<dim>20</dim>
				</port>
			</output>
		</layer>
		<layer id="36" name="conv2_3/3/concat" precision="FP32" type="Concat">
			<data axis="1"/>
			<input>
				<port id="0">
					<dim>1</dim>
					<dim>24</dim>
					<dim>40</dim>
					<dim>20</dim>
				</port>
				<port id="1">
					<dim>1</dim>
					<dim>24</dim>
					<dim>40</dim>
					<dim>20</dim>
				</port>
			</input>
			<output>
				<port id="2">
					<dim>1</dim>
					<dim>48</dim>
					<dim>40</dim>
					<dim>20</dim>
				</port>
			</output>
		</layer>
		<layer id="37" name="Pooling_" precision="FP32" type="Pooling">
			<data kernel="1,1" pads_begin="0,0" pads_end="0,0" pool-method="max" strides="2,2"/>
			<input>
				<port id="0">
					<dim>1</dim>
					<dim>48</dim>
					<dim>40</dim>
					<dim>20</dim>
				</port>
			</input>
			<output>
				<port id="1">
					<dim>1</dim>
					<dim>48</dim>
					<dim>20</dim>
					<dim>10</dim>
				</port>
			</output>
		</layer>
		<layer id="38" name="conv2_3/3/scale/Mul_/FusedScaleShift_" precision="FP32" type="ScaleShift">
			<input>
				<port id="0">
					<dim>1</dim>
					<dim>48</dim>
					<dim>20</dim>
					<dim>10</dim>
				</port>
			</input>
			<output>
				<port id="3">
					<dim>1</dim>
					<dim>48</dim>
					<dim>20</dim>
					<dim>10</dim>
				</port>
			</output>
			<blobs>
				<weights offset="122712" size="192"/>
				<biases offset="122904" size="192"/>
			</blobs>
		</layer>
		<layer id="39" name="conv2_3/3/relu" precision="FP32" type="ReLU">
			<data negative_slope="0.0"/>
			<input>
				<port id="0">
					<dim>1</dim>
					<dim>48</dim>
					<dim>20</dim>
					<dim>10</dim>
				</port>
			</input>
			<output>
				<port id="1">
					<dim>1</dim>
					<dim>48</dim>
					<dim>20</dim>
					<dim>10</dim>
				</port>
			</output>
		</layer>
		<layer id="40" name="conv2_3/3/conv" precision="FP32" type="Convolution">
			<data dilations="1,1" group="1" kernel="1,1" output="64" pads_begin="0,0" pads_end="0,0" strides="1,1"/>
			<input>
				<port id="0">
					<dim>1</dim>
					<dim>48</dim>
					<dim>20</dim>
					<dim>10</dim>
				</port>
			</input>
			<output>
				<port id="3">
					<dim>1</dim>
					<dim>64</dim>
					<dim>20</dim>
					<dim>10</dim>
				</port>
			</output>
			<blobs>
				<weights offset="123096" size="12288"/>
				<biases offset="135384" size="256"/>
			</blobs>
		</layer>
		<layer id="41" name="conv2_3/input" precision="FP32" type="Power">
			<data power="1.0" scale="1.0" shift="0.0"/>
			<input>
				<port id="0">
					<dim>1</dim>
					<dim>64</dim>
					<dim>40</dim>
					<dim>20</dim>
				</port>
			</input>
			<output>
				<port id="1">
					<dim>1</dim>
					<dim>64</dim>
					<dim>40</dim>
					<dim>20</dim>
				</port>
			</output>
		</layer>
		<layer id="42" name="Pooling_1338" precision="FP32" type="Pooling">
			<data kernel="1,1" pads_begin="0,0" pads_end="0,0" pool-method="max" strides="2,2"/>
			<input>
				<port id="0">
					<dim>1</dim>
					<dim>64</dim>
					<dim>40</dim>
					<dim>20</dim>
				</port>
			</input>
			<output>
				<port id="1">
					<dim>1</dim>
					<dim>64</dim>
					<dim>20</dim>
					<dim>10</dim>
				</port>
			</output>
		</layer>
		<layer id="43" name="conv2_3" precision="FP32" type="Eltwise">
			<data coeff="1.0,1.0" operation="sum"/>
			<input>
				<port id="0">
					<dim>1</dim>
					<dim>64</dim>
					<dim>20</dim>
					<dim>10</dim>
				</port>
				<port id="1">
					<dim>1</dim>
					<dim>64</dim>
					<dim>20</dim>
					<dim>10</dim>
				</port>
			</input>
			<output>
				<port id="2">
					<dim>1</dim>
					<dim>64</dim>
					<dim>20</dim>
					<dim>10</dim>
				</port>
			</output>
		</layer>
		<layer id="44" name="Mul_828/Fused_Mul_/FusedScaleShift_" precision="FP32" type="ScaleShift">
			<input>
				<port id="0">
					<dim>1</dim>
					<dim>64</dim>
					<dim>20</dim>
					<dim>10</dim>
				</port>
			</input>
			<output>
				<port id="3">
					<dim>1</dim>
					<dim>64</dim>
					<dim>20</dim>
					<dim>10</dim>
				</port>
			</output>
			<blobs>
				<weights offset="135640" size="256"/>
				<biases offset="135896" size="256"/>
			</blobs>
		</layer>
		<layer id="45" name="conv3_1/1/relu" precision="FP32" type="ReLU">
			<data negative_slope="0.0"/>
			<input>
				<port id="0">
					<dim>1</dim>
					<dim>64</dim>
					<dim>20</dim>
					<dim>10</dim>
				</port>
			</input>
			<output>
				<port id="1">
					<dim>1</dim>
					<dim>64</dim>
					<dim>20</dim>
					<dim>10</dim>
				</port>
			</output>
		</layer>
		<layer id="46" name="conv3_1/1/conv" precision="FP32" type="Convolution">
			<data dilations="1,1" group="1" kernel="1,1" output="48" pads_begin="0,0" pads_end="0,0" strides="1,1"/>
			<input>
				<port id="0">
					<dim>1</dim>
					<dim>64</dim>
					<dim>20</dim>
					<dim>10</dim>
				</port>
			</input>
			<output>
				<port id="3">
					<dim>1</dim>
					<dim>48</dim>
					<dim>20</dim>
					<dim>10</dim>
				</port>
			</output>
			<blobs>
				<weights offset="136152" size="12288"/>
				<biases offset="148440" size="192"/>
			</blobs>
		</layer>
		<layer id="47" name="conv3_1/2/relu" precision="FP32" type="ReLU">
			<data negative_slope="0.0"/>
			<input>
				<port id="0">
					<dim>1</dim>
					<dim>48</dim>
					<dim>20</dim>
					<dim>10</dim>
				</port>
			</input>
			<output>
				<port id="1">
					<dim>1</dim>
					<dim>48</dim>
					<dim>20</dim>
					<dim>10</dim>
				</port>
			</output>
		</layer>
		<layer id="48" name="conv3_1/2/conv" precision="FP32" type="Convolution">
			<data dilations="1,1" group="1" kernel="3,3" output="48" pads_begin="1,1" pads_end="1,1" strides="1,1"/>
			<input>
				<port id="0">
					<dim>1</dim>
					<dim>48</dim>
					<dim>20</dim>
					<dim>10</dim>
				</port>
			</input>
			<output>
				<port id="3">
					<dim>1</dim>
					<dim>48</dim>
					<dim>20</dim>
					<dim>10</dim>
				</port>
			</output>
			<blobs>
				<weights offset="148632" size="82944"/>
				<biases offset="231576" size="192"/>
			</blobs>
		</layer>
		<layer id="49" name="conv3_1/3/neg" precision="FP32" type="Power">
			<data power="1.0" scale="-1.0" shift="0.0"/>
			<input>
				<port id="0">
					<dim>1</dim>
					<dim>48</dim>
					<dim>20</dim>
					<dim>10</dim>
				</port>
			</input>
			<output>
				<port id="1">
					<dim>1</dim>
					<dim>48</dim>
					<dim>20</dim>
					<dim>10</dim>
				</port>
			</output>
		</layer>
		<layer id="50" name="conv3_1/3/concat" precision="FP32" type="Concat">
			<data axis="1"/>
			<input>
				<port id="0">
					<dim>1</dim>
					<dim>48</dim>
					<dim>20</dim>
					<dim>10</dim>
				</port>
				<port id="1">
					<dim>1</dim>
					<dim>48</dim>
					<dim>20</dim>
					<dim>10</dim>
				</port>
			</input>
			<output>
				<port id="2">
					<dim>1</dim>
					<dim>96</dim>
					<dim>20</dim>
					<dim>10</dim>
				</port>
			</output>
		</layer>
		<layer id="51" name="conv3_1/3/scale/Mul_/FusedScaleShift_" precision="FP32" type="ScaleShift">
			<input>
				<port id="0">
					<dim>1</dim>
					<dim>96</dim>
					<dim>20</dim>
					<dim>10</dim>
				</port>
			</input>
			<output>
				<port id="3">
					<dim>1</dim>
					<dim>96</dim>
					<dim>20</dim>
					<dim>10</dim>
				</port>
			</output>
			<blobs>
				<weights offset="231768" size="384"/>
				<biases offset="232152" size="384"/>
			</blobs>
		</layer>
		<layer id="52" name="conv3_1/3/relu" precision="FP32" type="ReLU">
			<data negative_slope="0.0"/>
			<input>
				<port id="0">
					<dim>1</dim>
					<dim>96</dim>
					<dim>20</dim>
					<dim>10</dim>
				</port>
			</input>
			<output>
				<port id="1">
					<dim>1</dim>
					<dim>96</dim>
					<dim>20</dim>
					<dim>10</dim>
				</port>
			</output>
		</layer>
		<layer id="53" name="conv3_1/3/conv" precision="FP32" type="Convolution">
			<data dilations="1,1" group="1" kernel="1,1" output="128" pads_begin="0,0" pads_end="0,0" strides="1,1"/>
			<input>
				<port id="0">
					<dim>1</dim>
					<dim>96</dim>
					<dim>20</dim>
					<dim>10</dim>
				</port>
			</input>
			<output>
				<port id="3">
					<dim>1</dim>
					<dim>128</dim>
					<dim>20</dim>
					<dim>10</dim>
				</port>
			</output>
			<blobs>
				<weights offset="232536" size="49152"/>
				<biases offset="281688" size="512"/>
			</blobs>
		</layer>
		<layer id="54" name="conv3_1/proj" precision="FP32" type="Convolution">
			<data dilations="1,1" group="1" kernel="1,1" output="128" pads_begin="0,0" pads_end="0,0" strides="1,1"/>
			<input>
				<port id="0">
					<dim>1</dim>
					<dim>64</dim>
					<dim>20</dim>
					<dim>10</dim>
				</port>
			</input>
			<output>
				<port id="3">
					<dim>1</dim>
					<dim>128</dim>
					<dim>20</dim>
					<dim>10</dim>
				</port>
			</output>
			<blobs>
				<weights offset="282200" size="32768"/>
				<biases offset="281688" size="512"/>
			</blobs>
		</layer>
		<layer id="55" name="conv3_1" precision="FP32" type="Eltwise">
			<data coeff="1.0,1.0" operation="sum"/>
			<input>
				<port id="0">
					<dim>1</dim>
					<dim>128</dim>
					<dim>20</dim>
					<dim>10</dim>
				</port>
				<port id="1">
					<dim>1</dim>
					<dim>128</dim>
					<dim>20</dim>
					<dim>10</dim>
				</port>
			</input>
			<output>
				<port id="2">
					<dim>1</dim>
					<dim>128</dim>
					<dim>20</dim>
					<dim>10</dim>
				</port>
			</output>
		</layer>
		<layer id="56" name="Mul_819/Fused_Mul_/FusedScaleShift_" precision="FP32" type="ScaleShift">
			<input>
				<port id="0">
					<dim>1</dim>
					<dim>128</dim>
					<dim>20</dim>
					<dim>10</dim>
				</port>
			</input>
			<output>
				<port id="3">
					<dim>1</dim>
					<dim>128</dim>
					<dim>20</dim>
					<dim>10</dim>
				</port>
			</output>
			<blobs>
				<weights offset="314968" size="512"/>
				<biases offset="315480" size="512"/>
			</blobs>
		</layer>
		<layer id="57" name="conv3_2/1/relu" precision="FP32" type="ReLU">
			<data negative_slope="0.0"/>
			<input>
				<port id="0">
					<dim>1</dim>
					<dim>128</dim>
					<dim>20</dim>
					<dim>10</dim>
				</port>
			</input>
			<output>
				<port id="1">
					<dim>1</dim>
					<dim>128</dim>
					<dim>20</dim>
					<dim>10</dim>
				</port>
			</output>
		</layer>
		<layer id="58" name="conv3_2/1/conv" precision="FP32" type="Convolution">
			<data dilations="1,1" group="1" kernel="1,1" output="48" pads_begin="0,0" pads_end="0,0" strides="1,1"/>
			<input>
				<port id="0">
					<dim>1</dim>
					<dim>128</dim>
					<dim>20</dim>
					<dim>10</dim>
				</port>
			</input>
			<output>
				<port id="3">
					<dim>1</dim>
					<dim>48</dim>
					<dim>20</dim>
					<dim>10</dim>
				</port>
			</output>
			<blobs>
				<weights offset="315992" size="24576"/>
				<biases offset="340568" size="192"/>
			</blobs>
		</layer>
		<layer id="59" name="conv3_2/2/relu" precision="FP32" type="ReLU">
			<data negative_slope="0.0"/>
			<input>
				<port id="0">
					<dim>1</dim>
					<dim>48</dim>
					<dim>20</dim>
					<dim>10</dim>
				</port>
			</input>
			<output>
				<port id="1">
					<dim>1</dim>
					<dim>48</dim>
					<dim>20</dim>
					<dim>10</dim>
				</port>
			</output>
		</layer>
		<layer id="60" name="conv3_2/2/conv" precision="FP32" type="Convolution">
			<data dilations="1,1" group="1" kernel="3,3" output="48" pads_begin="1,1" pads_end="1,1" strides="1,1"/>
			<input>
				<port id="0">
					<dim>1</dim>
					<dim>48</dim>
					<dim>20</dim>
					<dim>10</dim>
				</port>
			</input>
			<output>
				<port id="3">
					<dim>1</dim>
					<dim>48</dim>
					<dim>20</dim>
					<dim>10</dim>
				</port>
			</output>
			<blobs>
				<weights offset="340760" size="82944"/>
				<biases offset="423704" size="192"/>
			</blobs>
		</layer>
		<layer id="61" name="conv3_2/3/neg" precision="FP32" type="Power">
			<data power="1.0" scale="-1.0" shift="0.0"/>
			<input>
				<port id="0">
					<dim>1</dim>
					<dim>48</dim>
					<dim>20</dim>
					<dim>10</dim>
				</port>
			</input>
			<output>
				<port id="1">
					<dim>1</dim>
					<dim>48</dim>
					<dim>20</dim>
					<dim>10</dim>
				</port>
			</output>
		</layer>
		<layer id="62" name="conv3_2/3/concat" precision="FP32" type="Concat">
			<data axis="1"/>
			<input>
				<port id="0">
					<dim>1</dim>
					<dim>48</dim>
					<dim>20</dim>
					<dim>10</dim>
				</port>
				<port id="1">
					<dim>1</dim>
					<dim>48</dim>
					<dim>20</dim>
					<dim>10</dim>
				</port>
			</input>
			<output>
				<port id="2">
					<dim>1</dim>
					<dim>96</dim>
					<dim>20</dim>
					<dim>10</dim>
				</port>
			</output>
		</layer>
		<layer id="63" name="conv3_2/3/scale/Mul_/FusedScaleShift_" precision="FP32" type="ScaleShift">
			<input>
				<port id="0">
					<dim>1</dim>
					<dim>96</dim>
					<dim>20</dim>
					<dim>10</dim>
				</port>
			</input>
			<output>
				<port id="3">
					<dim>1</dim>
					<dim>96</dim>
					<dim>20</dim>
					<dim>10</dim>
				</port>
			</output>
			<blobs>
				<weights offset="423896" size="384"/>
				<biases offset="424280" size="384"/>
			</blobs>
		</layer>
		<layer id="64" name="conv3_2/3/relu" precision="FP32" type="ReLU">
			<data negative_slope="0.0"/>
			<input>
				<port id="0">
					<dim>1</dim>
					<dim>96</dim>
					<dim>20</dim>
					<dim>10</dim>
				</port>
			</input>
			<output>
				<port id="1">
					<dim>1</dim>
					<dim>96</dim>
					<dim>20</dim>
					<dim>10</dim>
				</port>
			</output>
		</layer>
		<layer id="65" name="conv3_2/3/conv" precision="FP32" type="Convolution">
			<data dilations="1,1" group="1" kernel="1,1" output="128" pads_begin="0,0" pads_end="0,0" strides="1,1"/>
			<input>
				<port id="0">
					<dim>1</dim>
					<dim>96</dim>
					<dim>20</dim>
					<dim>10</dim>
				</port>
			</input>
			<output>
				<port id="3">
					<dim>1</dim>
					<dim>128</dim>
					<dim>20</dim>
					<dim>10</dim>
				</port>
			</output>
			<blobs>
				<weights offset="424664" size="49152"/>
				<biases offset="473816" size="512"/>
			</blobs>
		</layer>
		<layer id="66" name="conv3_2/input" precision="FP32" type="Power">
			<data power="1.0" scale="1.0" shift="0.0"/>
			<input>
				<port id="0">
					<dim>1</dim>
					<dim>128</dim>
					<dim>20</dim>
					<dim>10</dim>
				</port>
			</input>
			<output>
				<port id="1">
					<dim>1</dim>
					<dim>128</dim>
					<dim>20</dim>
					<dim>10</dim>
				</port>
			</output>
		</layer>
		<layer id="67" name="conv3_2" precision="FP32" type="Eltwise">
			<data coeff="1.0,1.0" operation="sum"/>
			<input>
				<port id="0">
					<dim>1</dim>
					<dim>128</dim>
					<dim>20</dim>
					<dim>10</dim>
				</port>
				<port id="1">
					<dim>1</dim>
					<dim>128</dim>
					<dim>20</dim>
					<dim>10</dim>
				</port>
			</input>
			<output>
				<port id="2">
					<dim>1</dim>
					<dim>128</dim>
					<dim>20</dim>
					<dim>10</dim>
				</port>
			</output>
		</layer>
		<layer id="68" name="Mul_897/Fused_Mul_/FusedScaleShift_" precision="FP32" type="ScaleShift">
			<input>
				<port id="0">
					<dim>1</dim>
					<dim>128</dim>
					<dim>20</dim>
					<dim>10</dim>
				</port>
			</input>
			<output>
				<port id="3">
					<dim>1</dim>
					<dim>128</dim>
					<dim>20</dim>
					<dim>10</dim>
				</port>
			</output>
			<blobs>
				<weights offset="474328" size="512"/>
				<biases offset="474840" size="512"/>
			</blobs>
		</layer>
		<layer id="69" name="conv3_3/1/relu" precision="FP32" type="ReLU">
			<data negative_slope="0.0"/>
			<input>
				<port id="0">
					<dim>1</dim>
					<dim>128</dim>
					<dim>20</dim>
					<dim>10</dim>
				</port>
			</input>
			<output>
				<port id="1">
					<dim>1</dim>
					<dim>128</dim>
					<dim>20</dim>
					<dim>10</dim>
				</port>
			</output>
		</layer>
		<layer id="70" name="conv3_3/1/conv" precision="FP32" type="Convolution">
			<data dilations="1,1" group="1" kernel="1,1" output="48" pads_begin="0,0" pads_end="0,0" strides="1,1"/>
			<input>
				<port id="0">
					<dim>1</dim>
					<dim>128</dim>
					<dim>20</dim>
					<dim>10</dim>
				</port>
			</input>
			<output>
				<port id="3">
					<dim>1</dim>
					<dim>48</dim>
					<dim>20</dim>
					<dim>10</dim>
				</port>
			</output>
			<blobs>
				<weights offset="475352" size="24576"/>
				<biases offset="499928" size="192"/>
			</blobs>
		</layer>
		<layer id="71" name="conv3_3/2/relu" precision="FP32" type="ReLU">
			<data negative_slope="0.0"/>
			<input>
				<port id="0">
					<dim>1</dim>
					<dim>48</dim>
					<dim>20</dim>
					<dim>10</dim>
				</port>
			</input>
			<output>
				<port id="1">
					<dim>1</dim>
					<dim>48</dim>
					<dim>20</dim>
					<dim>10</dim>
				</port>
			</output>
		</layer>
		<layer id="72" name="conv3_3/2/conv" precision="FP32" type="Convolution">
			<data dilations="1,1" group="1" kernel="3,3" output="48" pads_begin="1,1" pads_end="1,1" strides="1,1"/>
			<input>
				<port id="0">
					<dim>1</dim>
					<dim>48</dim>
					<dim>20</dim>
					<dim>10</dim>
				</port>
			</input>
			<output>
				<port id="3">
					<dim>1</dim>
					<dim>48</dim>
					<dim>20</dim>
					<dim>10</dim>
				</port>
			</output>
			<blobs>
				<weights offset="500120" size="82944"/>
				<biases offset="583064" size="192"/>
			</blobs>
		</layer>
		<layer id="73" name="conv3_3/3/neg" precision="FP32" type="Power">
			<data power="1.0" scale="-1.0" shift="0.0"/>
			<input>
				<port id="0">
					<dim>1</dim>
					<dim>48</dim>
					<dim>20</dim>
					<dim>10</dim>
				</port>
			</input>
			<output>
				<port id="1">
					<dim>1</dim>
					<dim>48</dim>
					<dim>20</dim>
					<dim>10</dim>
				</port>
			</output>
		</layer>
		<layer id="74" name="conv3_3/3/concat" precision="FP32" type="Concat">
			<data axis="1"/>
			<input>
				<port id="0">
					<dim>1</dim>
					<dim>48</dim>
					<dim>20</dim>
					<dim>10</dim>
				</port>
				<port id="1">
					<dim>1</dim>
					<dim>48</dim>
					<dim>20</dim>
					<dim>10</dim>
				</port>
			</input>
			<output>
				<port id="2">
					<dim>1</dim>
					<dim>96</dim>
					<dim>20</dim>
					<dim>10</dim>
				</port>
			</output>
		</layer>
		<layer id="75" name="conv3_3/3/scale/Mul_/FusedScaleShift_" precision="FP32" type="ScaleShift">
			<input>
				<port id="0">
					<dim>1</dim>
					<dim>96</dim>
					<dim>20</dim>
					<dim>10</dim>
				</port>
			</input>
			<output>
				<port id="3">
					<dim>1</dim>
					<dim>96</dim>
					<dim>20</dim>
					<dim>10</dim>
				</port>
			</output>
			<blobs>
				<weights offset="583256" size="384"/>
				<biases offset="583640" size="384"/>
			</blobs>
		</layer>
		<layer id="76" name="conv3_3/3/relu" precision="FP32" type="ReLU">
			<data negative_slope="0.0"/>
			<input>
				<port id="0">
					<dim>1</dim>
					<dim>96</dim>
					<dim>20</dim>
					<dim>10</dim>
				</port>
			</input>
			<output>
				<port id="1">
					<dim>1</dim>
					<dim>96</dim>
					<dim>20</dim>
					<dim>10</dim>
				</port>
			</output>
		</layer>
		<layer id="77" name="conv3_3/3/conv" precision="FP32" type="Convolution">
			<data dilations="1,1" group="1" kernel="1,1" output="128" pads_begin="0,0" pads_end="0,0" strides="1,1"/>
			<input>
				<port id="0">
					<dim>1</dim>
					<dim>96</dim>
					<dim>20</dim>
					<dim>10</dim>
				</port>
			</input>
			<output>
				<port id="3">
					<dim>1</dim>
					<dim>128</dim>
					<dim>20</dim>
					<dim>10</dim>
				</port>
			</output>
			<blobs>
				<weights offset="584024" size="49152"/>
				<biases offset="633176" size="512"/>
			</blobs>
		</layer>
		<layer id="78" name="conv3_3/input" precision="FP32" type="Power">
			<data power="1.0" scale="1.0" shift="0.0"/>
			<input>
				<port id="0">
					<dim>1</dim>
					<dim>128</dim>
					<dim>20</dim>
					<dim>10</dim>
				</port>
			</input>
			<output>
				<port id="1">
					<dim>1</dim>
					<dim>128</dim>
					<dim>20</dim>
					<dim>10</dim>
				</port>
			</output>
		</layer>
		<layer id="79" name="conv3_3" precision="FP32" type="Eltwise">
			<data coeff="1.0,1.0" operation="sum"/>
			<input>
				<port id="0">
					<dim>1</dim>
					<dim>128</dim>
					<dim>20</dim>
					<dim>10</dim>
				</port>
				<port id="1">
					<dim>1</dim>
					<dim>128</dim>
					<dim>20</dim>
					<dim>10</dim>
				</port>
			</input>
			<output>
				<port id="2">
					<dim>1</dim>
					<dim>128</dim>
					<dim>20</dim>
					<dim>10</dim>
				</port>
			</output>
		</layer>
		<layer id="80" name="Mul_903/Fused_Mul_/FusedScaleShift_" precision="FP32" type="ScaleShift">
			<input>
				<port id="0">
					<dim>1</dim>
					<dim>128</dim>
					<dim>20</dim>
					<dim>10</dim>
				</port>
			</input>
			<output>
				<port id="3">
					<dim>1</dim>
					<dim>128</dim>
					<dim>20</dim>
					<dim>10</dim>
				</port>
			</output>
			<blobs>
				<weights offset="633688" size="512"/>
				<biases offset="634200" size="512"/>
			</blobs>
		</layer>
		<layer id="81" name="conv3_4/1/relu" precision="FP32" type="ReLU">
			<data negative_slope="0.0"/>
			<input>
				<port id="0">
					<dim>1</dim>
					<dim>128</dim>
					<dim>20</dim>
					<dim>10</dim>
				</port>
			</input>
			<output>
				<port id="1">
					<dim>1</dim>
					<dim>128</dim>
					<dim>20</dim>
					<dim>10</dim>
				</port>
			</output>
		</layer>
		<layer id="82" name="conv3_4/1/conv" precision="FP32" type="Convolution">
			<data dilations="1,1" group="1" kernel="1,1" output="48" pads_begin="0,0" pads_end="0,0" strides="1,1"/>
			<input>
				<port id="0">
					<dim>1</dim>
					<dim>128</dim>
					<dim>20</dim>
					<dim>10</dim>
				</port>
			</input>
			<output>
				<port id="3">
					<dim>1</dim>
					<dim>48</dim>
					<dim>20</dim>
					<dim>10</dim>
				</port>
			</output>
			<blobs>
				<weights offset="634712" size="24576"/>
				<biases offset="659288" size="192"/>
			</blobs>
		</layer>
		<layer id="83" name="conv3_4/2/relu" precision="FP32" type="ReLU">
			<data negative_slope="0.0"/>
			<input>
				<port id="0">
					<dim>1</dim>
					<dim>48</dim>
					<dim>20</dim>
					<dim>10</dim>
				</port>
			</input>
			<output>
				<port id="1">
					<dim>1</dim>
					<dim>48</dim>
					<dim>20</dim>
					<dim>10</dim>
				</port>
			</output>
		</layer>
		<layer id="84" name="conv3_4/2/conv" precision="FP32" type="Convolution">
			<data dilations="1,1" group="1" kernel="3,3" output="48" pads_begin="1,1" pads_end="1,1" strides="1,1"/>
			<input>
				<port id="0">
					<dim>1</dim>
					<dim>48</dim>
					<dim>20</dim>
					<dim>10</dim>
				</port>
			</input>
			<output>
				<port id="3">
					<dim>1</dim>
					<dim>48</dim>
					<dim>20</dim>
					<dim>10</dim>
				</port>
			</output>
			<blobs>
				<weights offset="659480" size="82944"/>
				<biases offset="742424" size="192"/>
			</blobs>
		</layer>
		<layer id="85" name="conv3_4/3/neg" precision="FP32" type="Power">
			<data power="1.0" scale="-1.0" shift="0.0"/>
			<input>
				<port id="0">
					<dim>1</dim>
					<dim>48</dim>
					<dim>20</dim>
					<dim>10</dim>
				</port>
			</input>
			<output>
				<port id="1">
					<dim>1</dim>
					<dim>48</dim>
					<dim>20</dim>
					<dim>10</dim>
				</port>
			</output>
		</layer>
		<layer id="86" name="conv3_4/3/concat" precision="FP32" type="Concat">
			<data axis="1"/>
			<input>
				<port id="0">
					<dim>1</dim>
					<dim>48</dim>
					<dim>20</dim>
					<dim>10</dim>
				</port>
				<port id="1">
					<dim>1</dim>
					<dim>48</dim>
					<dim>20</dim>
					<dim>10</dim>
				</port>
			</input>
			<output>
				<port id="2">
					<dim>1</dim>
					<dim>96</dim>
					<dim>20</dim>
					<dim>10</dim>
				</port>
			</output>
		</layer>
		<layer id="87" name="conv3_4/3/scale/Mul_/FusedScaleShift_" precision="FP32" type="ScaleShift">
			<input>
				<port id="0">
					<dim>1</dim>
					<dim>96</dim>
					<dim>20</dim>
					<dim>10</dim>
				</port>
			</input>
			<output>
				<port id="3">
					<dim>1</dim>
					<dim>96</dim>
					<dim>20</dim>
					<dim>10</dim>
				</port>
			</output>
			<blobs>
				<weights offset="742616" size="384"/>
				<biases offset="743000" size="384"/>
			</blobs>
		</layer>
		<layer id="88" name="conv3_4/3/relu" precision="FP32" type="ReLU">
			<data negative_slope="0.0"/>
			<input>
				<port id="0">
					<dim>1</dim>
					<dim>96</dim>
					<dim>20</dim>
					<dim>10</dim>
				</port>
			</input>
			<output>
				<port id="1">
					<dim>1</dim>
					<dim>96</dim>
					<dim>20</dim>
					<dim>10</dim>
				</port>
			</output>
		</layer>
		<layer id="89" name="conv3_4/3/conv" precision="FP32" type="Convolution">
			<data dilations="1,1" group="1" kernel="1,1" output="128" pads_begin="0,0" pads_end="0,0" strides="1,1"/>
			<input>
				<port id="0">
					<dim>1</dim>
					<dim>96</dim>
					<dim>20</dim>
					<dim>10</dim>
				</port>
			</input>
			<output>
				<port id="3">
					<dim>1</dim>
					<dim>128</dim>
					<dim>20</dim>
					<dim>10</dim>
				</port>
			</output>
			<blobs>
				<weights offset="743384" size="49152"/>
				<biases offset="792536" size="512"/>
			</blobs>
		</layer>
		<layer id="90" name="conv3_4/input" precision="FP32" type="Power">
			<data power="1.0" scale="1.0" shift="0.0"/>
			<input>
				<port id="0">
					<dim>1</dim>
					<dim>128</dim>
					<dim>20</dim>
					<dim>10</dim>
				</port>
			</input>
			<output>
				<port id="1">
					<dim>1</dim>
					<dim>128</dim>
					<dim>20</dim>
					<dim>10</dim>
				</port>
			</output>
		</layer>
		<layer id="91" name="conv3_4" precision="FP32" type="Eltwise">
			<data coeff="1.0,1.0" operation="sum"/>
			<input>
				<port id="0">
					<dim>1</dim>
					<dim>128</dim>
					<dim>20</dim>
					<dim>10</dim>
				</port>
				<port id="1">
					<dim>1</dim>
					<dim>128</dim>
					<dim>20</dim>
					<dim>10</dim>
				</port>
			</input>
			<output>
				<port id="2">
					<dim>1</dim>
					<dim>128</dim>
					<dim>20</dim>
					<dim>10</dim>
				</port>
			</output>
		</layer>
		<layer id="92" name="Mul_891/Fused_Mul_/FusedScaleShift_" precision="FP32" type="ScaleShift">
			<input>
				<port id="0">
					<dim>1</dim>
					<dim>128</dim>
					<dim>20</dim>
					<dim>10</dim>
				</port>
			</input>
			<output>
				<port id="3">
					<dim>1</dim>
					<dim>128</dim>
					<dim>20</dim>
					<dim>10</dim>
				</port>
			</output>
			<blobs>
				<weights offset="793048" size="512"/>
				<biases offset="793560" size="512"/>
			</blobs>
		</layer>
		<layer id="93" name="conv4_1/incep/relu" precision="FP32" type="ReLU">
			<data negative_slope="0.0"/>
			<input>
				<port id="0">
					<dim>1</dim>
					<dim>128</dim>
					<dim>20</dim>
					<dim>10</dim>
				</port>
			</input>
			<output>
				<port id="1">
					<dim>1</dim>
					<dim>128</dim>
					<dim>20</dim>
					<dim>10</dim>
				</port>
			</output>
		</layer>
		<layer id="94" name="conv4_1/incep/0/conv" precision="FP32" type="Convolution">
			<data dilations="1,1" group="1" kernel="1,1" output="64" pads_begin="0,0" pads_end="0,0" strides="2,2"/>
			<input>
				<port id="0">
					<dim>1</dim>
					<dim>128</dim>
					<dim>20</dim>
					<dim>10</dim>
				</port>
			</input>
			<output>
				<port id="3">
					<dim>1</dim>
					<dim>64</dim>
					<dim>10</dim>
					<dim>5</dim>
				</port>
			</output>
			<blobs>
				<weights offset="794072" size="32768"/>
				<biases offset="826840" size="256"/>
			</blobs>
		</layer>
		<layer id="95" name="conv4_1/incep/0/relu" precision="FP32" type="ReLU">
			<data negative_slope="0.0"/>
			<input>
				<port id="0">
					<dim>1</dim>
					<dim>64</dim>
					<dim>10</dim>
					<dim>5</dim>
				</port>
			</input>
			<output>
				<port id="1">
					<dim>1</dim>
					<dim>64</dim>
					<dim>10</dim>
					<dim>5</dim>
				</port>
			</output>
		</layer>
		<layer id="96" name="conv4_1/incep/1_reduce/conv" precision="FP32" type="Convolution">
			<data dilations="1,1" group="1" kernel="1,1" output="48" pads_begin="0,0" pads_end="0,0" strides="2,2"/>
			<input>
				<port id="0">
					<dim>1</dim>
					<dim>128</dim>
					<dim>20</dim>
					<dim>10</dim>
				</port>
			</input>
			<output>
				<port id="3">
					<dim>1</dim>
					<dim>48</dim>
					<dim>10</dim>
					<dim>5</dim>
				</port>
			</output>
			<blobs>
				<weights offset="827096" size="24576"/>
				<biases offset="851672" size="192"/>
			</blobs>
		</layer>
		<layer id="97" name="conv4_1/incep/1_reduce/relu" precision="FP32" type="ReLU">
			<data negative_slope="0.0"/>
			<input>
				<port id="0">
					<dim>1</dim>
					<dim>48</dim>
					<dim>10</dim>
					<dim>5</dim>
				</port>
			</input>
			<output>
				<port id="1">
					<dim>1</dim>
					<dim>48</dim>
					<dim>10</dim>
					<dim>5</dim>
				</port>
			</output>
		</layer>
		<layer id="98" name="conv4_1/incep/1_0/conv" precision="FP32" type="Convolution">
			<data dilations="1,1" group="1" kernel="3,3" output="128" pads_begin="1,1" pads_end="1,1" strides="1,1"/>
			<input>
				<port id="0">
					<dim>1</dim>
					<dim>48</dim>
					<dim>10</dim>
					<dim>5</dim>
				</port>
			</input>
			<output>
				<port id="3">
					<dim>1</dim>
					<dim>128</dim>
					<dim>10</dim>
					<dim>5</dim>
				</port>
			</output>
			<blobs>
				<weights offset="851864" size="221184"/>
				<biases offset="1073048" size="512"/>
			</blobs>
		</layer>
		<layer id="99" name="conv4_1/incep/1_0/relu" precision="FP32" type="ReLU">
			<data negative_slope="0.0"/>
			<input>
				<port id="0">
					<dim>1</dim>
					<dim>128</dim>
					<dim>10</dim>
					<dim>5</dim>
				</port>
			</input>
			<output>
				<port id="1">
					<dim>1</dim>
					<dim>128</dim>
					<dim>10</dim>
					<dim>5</dim>
				</port>
			</output>
		</layer>
		<layer id="100" name="conv4_1/incep/2_reduce/conv" precision="FP32" type="Convolution">
			<data dilations="1,1" group="1" kernel="1,1" output="24" pads_begin="0,0" pads_end="0,0" strides="2,2"/>
			<input>
				<port id="0">
					<dim>1</dim>
					<dim>128</dim>
					<dim>20</dim>
					<dim>10</dim>
				</port>
			</input>
			<output>
				<port id="3">
					<dim>1</dim>
					<dim>24</dim>
					<dim>10</dim>
					<dim>5</dim>
				</port>
			</output>
			<blobs>
				<weights offset="1073560" size="12288"/>
				<biases offset="1085848" size="96"/>
			</blobs>
		</layer>
		<layer id="101" name="conv4_1/incep/2_reduce/relu" precision="FP32" type="ReLU">
			<data negative_slope="0.0"/>
			<input>
				<port id="0">
					<dim>1</dim>
					<dim>24</dim>
					<dim>10</dim>
					<dim>5</dim>
				</port>
			</input>
			<output>
				<port id="1">
					<dim>1</dim>
					<dim>24</dim>
					<dim>10</dim>
					<dim>5</dim>
				</port>
			</output>
		</layer>
		<layer id="102" name="conv4_1/incep/2_0/conv" precision="FP32" type="Convolution">
			<data dilations="1,1" group="1" kernel="3,3" output="48" pads_begin="1,1" pads_end="1,1" strides="1,1"/>
			<input>
				<port id="0">
					<dim>1</dim>
					<dim>24</dim>
					<dim>10</dim>
					<dim>5</dim>
				</port>
			</input>
			<output>
				<port id="3">
					<dim>1</dim>
					<dim>48</dim>
					<dim>10</dim>
					<dim>5</dim>
				</port>
			</output>
			<blobs>
				<weights offset="1085944" size="41472"/>
				<biases offset="1127416" size="192"/>
			</blobs>
		</layer>
		<layer id="103" name="conv4_1/incep/2_0/relu" precision="FP32" type="ReLU">
			<data negative_slope="0.0"/>
			<input>
				<port id="0">
					<dim>1</dim>
					<dim>48</dim>
					<dim>10</dim>
					<dim>5</dim>
				</port>
			</input>
			<output>
				<port id="1">
					<dim>1</dim>
					<dim>48</dim>
					<dim>10</dim>
					<dim>5</dim>
				</port>
			</output>
		</layer>
		<layer id="104" name="conv4_1/incep/2_1/conv" precision="FP32" type="Convolution">
			<data dilations="1,1" group="1" kernel="3,3" output="48" pads_begin="1,1" pads_end="1,1" strides="1,1"/>
			<input>
				<port id="0">
					<dim>1</dim>
					<dim>48</dim>
					<dim>10</dim>
					<dim>5</dim>
				</port>
			</input>
			<output>
				<port id="3">
					<dim>1</dim>
					<dim>48</dim>
					<dim>10</dim>
					<dim>5</dim>
				</port>
			</output>
			<blobs>
				<weights offset="1127608" size="82944"/>
				<biases offset="1210552" size="192"/>
			</blobs>
		</layer>
		<layer id="105" name="conv4_1/incep/2_1/relu" precision="FP32" type="ReLU">
			<data negative_slope="0.0"/>
			<input>
				<port id="0">
					<dim>1</dim>
					<dim>48</dim>
					<dim>10</dim>
					<dim>5</dim>
				</port>
			</input>
			<output>
				<port id="1">
					<dim>1</dim>
					<dim>48</dim>
					<dim>10</dim>
					<dim>5</dim>
				</port>
			</output>
		</layer>
		<layer id="106" name="conv4_1/incep/pool" precision="FP32" type="Pooling">
			<data exclude-pad="false" kernel="3,3" pads_begin="0,0" pads_end="0,0" pool-method="max" rounding_type="ceil" strides="2,2"/>
			<input>
				<port id="0">
					<dim>1</dim>
					<dim>128</dim>
					<dim>20</dim>
					<dim>10</dim>
				</port>
			</input>
			<output>
				<port id="1">
					<dim>1</dim>
					<dim>128</dim>
					<dim>10</dim>
					<dim>5</dim>
				</port>
			</output>
		</layer>
		<layer id="107" name="conv4_1/incep/poolproj/conv" precision="FP32" type="Convolution">
			<data dilations="1,1" group="1" kernel="1,1" output="128" pads_begin="0,0" pads_end="0,0" strides="1,1"/>
			<input>
				<port id="0">
					<dim>1</dim>
					<dim>128</dim>
					<dim>10</dim>
					<dim>5</dim>
				</port>
			</input>
			<output>
				<port id="3">
					<dim>1</dim>
					<dim>128</dim>
					<dim>10</dim>
					<dim>5</dim>
				</port>
			</output>
			<blobs>
				<weights offset="1210744" size="65536"/>
				<biases offset="1276280" size="512"/>
			</blobs>
		</layer>
		<layer id="108" name="conv4_1/incep/poolproj/relu" precision="FP32" type="ReLU">
			<data negative_slope="0.0"/>
			<input>
				<port id="0">
					<dim>1</dim>
					<dim>128</dim>
					<dim>10</dim>
					<dim>5</dim>
				</port>
			</input>
			<output>
				<port id="1">
					<dim>1</dim>
					<dim>128</dim>
					<dim>10</dim>
					<dim>5</dim>
				</port>
			</output>
		</layer>
		<layer id="109" name="conv4_1/incep" precision="FP32" type="Concat">
			<data axis="1"/>
			<input>
				<port id="0">
					<dim>1</dim>
					<dim>64</dim>
					<dim>10</dim>
					<dim>5</dim>
				</port>
				<port id="1">
					<dim>1</dim>
					<dim>128</dim>
					<dim>10</dim>
					<dim>5</dim>
				</port>
				<port id="2">
					<dim>1</dim>
					<dim>48</dim>
					<dim>10</dim>
					<dim>5</dim>
				</port>
				<port id="3">
					<dim>1</dim>
					<dim>128</dim>
					<dim>10</dim>
					<dim>5</dim>
				</port>
			</input>
			<output>
				<port id="4">
					<dim>1</dim>
					<dim>368</dim>
					<dim>10</dim>
					<dim>5</dim>
				</port>
			</output>
		</layer>
		<layer id="110" name="conv4_1/out/conv" precision="FP32" type="Convolution">
			<data dilations="1,1" group="1" kernel="1,1" output="256" pads_begin="0,0" pads_end="0,0" strides="1,1"/>
			<input>
				<port id="0">
					<dim>1</dim>
					<dim>368</dim>
					<dim>10</dim>
					<dim>5</dim>
				</port>
			</input>
			<output>
				<port id="3">
					<dim>1</dim>
					<dim>256</dim>
					<dim>10</dim>
					<dim>5</dim>
				</port>
			</output>
			<blobs>
				<weights offset="1276792" size="376832"/>
				<biases offset="1653624" size="1024"/>
			</blobs>
		</layer>
		<layer id="111" name="conv4_1/proj" precision="FP32" type="Convolution">
			<data dilations="1,1" group="1" kernel="1,1" output="256" pads_begin="0,0" pads_end="0,0" strides="2,2"/>
			<input>
				<port id="0">
					<dim>1</dim>
					<dim>128</dim>
					<dim>20</dim>
					<dim>10</dim>
				</port>
			</input>
			<output>
				<port id="3">
					<dim>1</dim>
					<dim>256</dim>
					<dim>10</dim>
					<dim>5</dim>
				</port>
			</output>
			<blobs>
				<weights offset="1654648" size="131072"/>
				<biases offset="1653624" size="1024"/>
			</blobs>
		</layer>
		<layer id="112" name="conv4_1" precision="FP32" type="Eltwise">
			<data coeff="1.0,1.0" operation="sum"/>
			<input>
				<port id="0">
					<dim>1</dim>
					<dim>256</dim>
					<dim>10</dim>
					<dim>5</dim>
				</port>
				<port id="1">
					<dim>1</dim>
					<dim>256</dim>
					<dim>10</dim>
					<dim>5</dim>
				</port>
			</input>
			<output>
				<port id="2">
					<dim>1</dim>
					<dim>256</dim>
					<dim>10</dim>
					<dim>5</dim>
				</port>
			</output>
		</layer>
		<layer id="113" name="Mul_807/Fused_Mul_/FusedScaleShift_" precision="FP32" type="ScaleShift">
			<input>
				<port id="0">
					<dim>1</dim>
					<dim>256</dim>
					<dim>10</dim>
					<dim>5</dim>
				</port>
			</input>
			<output>
				<port id="3">
					<dim>1</dim>
					<dim>256</dim>
					<dim>10</dim>
					<dim>5</dim>
				</port>
			</output>
			<blobs>
				<weights offset="1785720" size="1024"/>
				<biases offset="1786744" size="1024"/>
			</blobs>
		</layer>
		<layer id="114" name="conv4_2/incep/relu" precision="FP32" type="ReLU">
			<data negative_slope="0.0"/>
			<input>
				<port id="0">
					<dim>1</dim>
					<dim>256</dim>
					<dim>10</dim>
					<dim>5</dim>
				</port>
			</input>
			<output>
				<port id="1">
					<dim>1</dim>
					<dim>256</dim>
					<dim>10</dim>
					<dim>5</dim>
				</port>
			</output>
		</layer>
		<layer id="115" name="conv4_2/incep/0/conv" precision="FP32" type="Convolution">
			<data dilations="1,1" group="1" kernel="1,1" output="64" pads_begin="0,0" pads_end="0,0" strides="1,1"/>
			<input>
				<port id="0">
					<dim>1</dim>
					<dim>256</dim>
					<dim>10</dim>
					<dim>5</dim>
				</port>
			</input>
			<output>
				<port id="3">
					<dim>1</dim>
					<dim>64</dim>
					<dim>10</dim>
					<dim>5</dim>
				</port>
			</output>
			<blobs>
				<weights offset="1787768" size="65536"/>
				<biases offset="1853304" size="256"/>
			</blobs>
		</layer>
		<layer id="116" name="conv4_2/incep/0/relu" precision="FP32" type="ReLU">
			<data negative_slope="0.0"/>
			<input>
				<port id="0">
					<dim>1</dim>
					<dim>64</dim>
					<dim>10</dim>
					<dim>5</dim>
				</port>
			</input>
			<output>
				<port id="1">
					<dim>1</dim>
					<dim>64</dim>
					<dim>10</dim>
					<dim>5</dim>
				</port>
			</output>
		</layer>
		<layer id="117" name="conv4_2/incep/1_reduce/conv" precision="FP32" type="Convolution">
			<data dilations="1,1" group="1" kernel="1,1" output="64" pads_begin="0,0" pads_end="0,0" strides="1,1"/>
			<input>
				<port id="0">
					<dim>1</dim>
					<dim>256</dim>
					<dim>10</dim>
					<dim>5</dim>
				</port>
			</input>
			<output>
				<port id="3">
					<dim>1</dim>
					<dim>64</dim>
					<dim>10</dim>
					<dim>5</dim>
				</port>
			</output>
			<blobs>
				<weights offset="1853560" size="65536"/>
				<biases offset="1919096" size="256"/>
			</blobs>
		</layer>
		<layer id="118" name="conv4_2/incep/1_reduce/relu" precision="FP32" type="ReLU">
			<data negative_slope="0.0"/>
			<input>
				<port id="0">
					<dim>1</dim>
					<dim>64</dim>
					<dim>10</dim>
					<dim>5</dim>
				</port>
			</input>
			<output>
				<port id="1">
					<dim>1</dim>
					<dim>64</dim>
					<dim>10</dim>
					<dim>5</dim>
				</port>
			</output>
		</layer>
		<layer id="119" name="conv4_2/incep/1_0/conv" precision="FP32" type="Convolution">
			<data dilations="1,1" group="1" kernel="3,3" output="128" pads_begin="1,1" pads_end="1,1" strides="1,1"/>
			<input>
				<port id="0">
					<dim>1</dim>
					<dim>64</dim>
					<dim>10</dim>
					<dim>5</dim>
				</port>
			</input>
			<output>
				<port id="3">
					<dim>1</dim>
					<dim>128</dim>
					<dim>10</dim>
					<dim>5</dim>
				</port>
			</output>
			<blobs>
				<weights offset="1919352" size="294912"/>
				<biases offset="2214264" size="512"/>
			</blobs>
		</layer>
		<layer id="120" name="conv4_2/incep/1_0/relu" precision="FP32" type="ReLU">
			<data negative_slope="0.0"/>
			<input>
				<port id="0">
					<dim>1</dim>
					<dim>128</dim>
					<dim>10</dim>
					<dim>5</dim>
				</port>
			</input>
			<output>
				<port id="1">
					<dim>1</dim>
					<dim>128</dim>
					<dim>10</dim>
					<dim>5</dim>
				</port>
			</output>
		</layer>
		<layer id="121" name="conv4_2/incep/2_reduce/conv" precision="FP32" type="Convolution">
			<data dilations="1,1" group="1" kernel="1,1" output="24" pads_begin="0,0" pads_end="0,0" strides="1,1"/>
			<input>
				<port id="0">
					<dim>1</dim>
					<dim>256</dim>
					<dim>10</dim>
					<dim>5</dim>
				</port>
			</input>
			<output>
				<port id="3">
					<dim>1</dim>
					<dim>24</dim>
					<dim>10</dim>
					<dim>5</dim>
				</port>
			</output>
			<blobs>
				<weights offset="2214776" size="24576"/>
				<biases offset="2239352" size="96"/>
			</blobs>
		</layer>
		<layer id="122" name="conv4_2/incep/2_reduce/relu" precision="FP32" type="ReLU">
			<data negative_slope="0.0"/>
			<input>
				<port id="0">
					<dim>1</dim>
					<dim>24</dim>
					<dim>10</dim>
					<dim>5</dim>
				</port>
			</input>
			<output>
				<port id="1">
					<dim>1</dim>
					<dim>24</dim>
					<dim>10</dim>
					<dim>5</dim>
				</port>
			</output>
		</layer>
		<layer id="123" name="conv4_2/incep/2_0/conv" precision="FP32" type="Convolution">
			<data dilations="1,1" group="1" kernel="3,3" output="48" pads_begin="1,1" pads_end="1,1" strides="1,1"/>
			<input>
				<port id="0">
					<dim>1</dim>
					<dim>24</dim>
					<dim>10</dim>
					<dim>5</dim>
				</port>
			</input>
			<output>
				<port id="3">
					<dim>1</dim>
					<dim>48</dim>
					<dim>10</dim>
					<dim>5</dim>
				</port>
			</output>
			<blobs>
				<weights offset="2239448" size="41472"/>
				<biases offset="2280920" size="192"/>
			</blobs>
		</layer>
		<layer id="124" name="conv4_2/incep/2_0/relu" precision="FP32" type="ReLU">
			<data negative_slope="0.0"/>
			<input>
				<port id="0">
					<dim>1</dim>
					<dim>48</dim>
					<dim>10</dim>
					<dim>5</dim>
				</port>
			</input>
			<output>
				<port id="1">
					<dim>1</dim>
					<dim>48</dim>
					<dim>10</dim>
					<dim>5</dim>
				</port>
			</output>
		</layer>
		<layer id="125" name="conv4_2/incep/2_1/conv" precision="FP32" type="Convolution">
			<data dilations="1,1" group="1" kernel="3,3" output="48" pads_begin="1,1" pads_end="1,1" strides="1,1"/>
			<input>
				<port id="0">
					<dim>1</dim>
					<dim>48</dim>
					<dim>10</dim>
					<dim>5</dim>
				</port>
			</input>
			<output>
				<port id="3">
					<dim>1</dim>
					<dim>48</dim>
					<dim>10</dim>
					<dim>5</dim>
				</port>
			</output>
			<blobs>
				<weights offset="2281112" size="82944"/>
				<biases offset="2364056" size="192"/>
			</blobs>
		</layer>
		<layer id="126" name="conv4_2/incep/2_1/relu" precision="FP32" type="ReLU">
			<data negative_slope="0.0"/>
			<input>
				<port id="0">
					<dim>1</dim>
					<dim>48</dim>
					<dim>10</dim>
					<dim>5</dim>
				</port>
			</input>
			<output>
				<port id="1">
					<dim>1</dim>
					<dim>48</dim>
					<dim>10</dim>
					<dim>5</dim>
				</port>
			</output>
		</layer>
		<layer id="127" name="conv4_2/incep" precision="FP32" type="Concat">
			<data axis="1"/>
			<input>
				<port id="0">
					<dim>1</dim>
					<dim>64</dim>
					<dim>10</dim>
					<dim>5</dim>
				</port>
				<port id="1">
					<dim>1</dim>
					<dim>128</dim>
					<dim>10</dim>
					<dim>5</dim>
				</port>
				<port id="2">
					<dim>1</dim>
					<dim>48</dim>
					<dim>10</dim>
					<dim>5</dim>
				</port>
			</input>
			<output>
				<port id="3">
					<dim>1</dim>
					<dim>240</dim>
					<dim>10</dim>
					<dim>5</dim>
				</port>
			</output>
		</layer>
		<layer id="128" name="conv4_2/out/conv" precision="FP32" type="Convolution">
			<data dilations="1,1" group="1" kernel="1,1" output="256" pads_begin="0,0" pads_end="0,0" strides="1,1"/>
			<input>
				<port id="0">
					<dim>1</dim>
					<dim>240</dim>
					<dim>10</dim>
					<dim>5</dim>
				</port>
			</input>
			<output>
				<port id="3">
					<dim>1</dim>
					<dim>256</dim>
					<dim>10</dim>
					<dim>5</dim>
				</port>
			</output>
			<blobs>
				<weights offset="2364248" size="245760"/>
				<biases offset="2610008" size="1024"/>
			</blobs>
		</layer>
		<layer id="129" name="conv4_2/input" precision="FP32" type="Power">
			<data power="1.0" scale="1.0" shift="0.0"/>
			<input>
				<port id="0">
					<dim>1</dim>
					<dim>256</dim>
					<dim>10</dim>
					<dim>5</dim>
				</port>
			</input>
			<output>
				<port id="1">
					<dim>1</dim>
					<dim>256</dim>
					<dim>10</dim>
					<dim>5</dim>
				</port>
			</output>
		</layer>
		<layer id="130" name="conv4_2" precision="FP32" type="Eltwise">
			<data coeff="1.0,1.0" operation="sum"/>
			<input>
				<port id="0">
					<dim>1</dim>
					<dim>256</dim>
					<dim>10</dim>
					<dim>5</dim>
				</port>
				<port id="1">
					<dim>1</dim>
					<dim>256</dim>
					<dim>10</dim>
					<dim>5</dim>
				</port>
			</input>
			<output>
				<port id="2">
					<dim>1</dim>
					<dim>256</dim>
					<dim>10</dim>
					<dim>5</dim>
				</port>
			</output>
		</layer>
		<layer id="131" name="Mul_864/Fused_Mul_/FusedScaleShift_" precision="FP32" type="ScaleShift">
			<input>
				<port id="0">
					<dim>1</dim>
					<dim>256</dim>
					<dim>10</dim>
					<dim>5</dim>
				</port>
			</input>
			<output>
				<port id="3">
					<dim>1</dim>
					<dim>256</dim>
					<dim>10</dim>
					<dim>5</dim>
				</port>
			</output>
			<blobs>
				<weights offset="2611032" size="1024"/>
				<biases offset="2612056" size="1024"/>
			</blobs>
		</layer>
		<layer id="132" name="conv4_3/incep/relu" precision="FP32" type="ReLU">
			<data negative_slope="0.0"/>
			<input>
				<port id="0">
					<dim>1</dim>
					<dim>256</dim>
					<dim>10</dim>
					<dim>5</dim>
				</port>
			</input>
			<output>
				<port id="1">
					<dim>1</dim>
					<dim>256</dim>
					<dim>10</dim>
					<dim>5</dim>
				</port>
			</output>
		</layer>
		<layer id="133" name="conv4_3/incep/0/conv" precision="FP32" type="Convolution">
			<data dilations="1,1" group="1" kernel="1,1" output="64" pads_begin="0,0" pads_end="0,0" strides="1,1"/>
			<input>
				<port id="0">
					<dim>1</dim>
					<dim>256</dim>
					<dim>10</dim>
					<dim>5</dim>
				</port>
			</input>
			<output>
				<port id="3">
					<dim>1</dim>
					<dim>64</dim>
					<dim>10</dim>
					<dim>5</dim>
				</port>
			</output>
			<blobs>
				<weights offset="2613080" size="65536"/>
				<biases offset="2678616" size="256"/>
			</blobs>
		</layer>
		<layer id="134" name="conv4_3/incep/0/relu" precision="FP32" type="ReLU">
			<data negative_slope="0.0"/>
			<input>
				<port id="0">
					<dim>1</dim>
					<dim>64</dim>
					<dim>10</dim>
					<dim>5</dim>
				</port>
			</input>
			<output>
				<port id="1">
					<dim>1</dim>
					<dim>64</dim>
					<dim>10</dim>
					<dim>5</dim>
				</port>
			</output>
		</layer>
		<layer id="135" name="conv4_3/incep/1_reduce/conv" precision="FP32" type="Convolution">
			<data dilations="1,1" group="1" kernel="1,1" output="64" pads_begin="0,0" pads_end="0,0" strides="1,1"/>
			<input>
				<port id="0">
					<dim>1</dim>
					<dim>256</dim>
					<dim>10</dim>
					<dim>5</dim>
				</port>
			</input>
			<output>
				<port id="3">
					<dim>1</dim>
					<dim>64</dim>
					<dim>10</dim>
					<dim>5</dim>
				</port>
			</output>
			<blobs>
				<weights offset="2678872" size="65536"/>
				<biases offset="2744408" size="256"/>
			</blobs>
		</layer>
		<layer id="136" name="conv4_3/incep/1_reduce/relu" precision="FP32" type="ReLU">
			<data negative_slope="0.0"/>
			<input>
				<port id="0">
					<dim>1</dim>
					<dim>64</dim>
					<dim>10</dim>
					<dim>5</dim>
				</port>
			</input>
			<output>
				<port id="1">
					<dim>1</dim>
					<dim>64</dim>
					<dim>10</dim>
					<dim>5</dim>
				</port>
			</output>
		</layer>
		<layer id="137" name="conv4_3/incep/1_0/conv" precision="FP32" type="Convolution">
			<data dilations="1,1" group="1" kernel="3,3" output="128" pads_begin="1,1" pads_end="1,1" strides="1,1"/>
			<input>
				<port id="0">
					<dim>1</dim>
					<dim>64</dim>
					<dim>10</dim>
					<dim>5</dim>
				</port>
			</input>
			<output>
				<port id="3">
					<dim>1</dim>
					<dim>128</dim>
					<dim>10</dim>
					<dim>5</dim>
				</port>
			</output>
			<blobs>
				<weights offset="2744664" size="294912"/>
				<biases offset="3039576" size="512"/>
			</blobs>
		</layer>
		<layer id="138" name="conv4_3/incep/1_0/relu" precision="FP32" type="ReLU">
			<data negative_slope="0.0"/>
			<input>
				<port id="0">
					<dim>1</dim>
					<dim>128</dim>
					<dim>10</dim>
					<dim>5</dim>
				</port>
			</input>
			<output>
				<port id="1">
					<dim>1</dim>
					<dim>128</dim>
					<dim>10</dim>
					<dim>5</dim>
				</port>
			</output>
		</layer>
		<layer id="139" name="conv4_3/incep/2_reduce/conv" precision="FP32" type="Convolution">
			<data dilations="1,1" group="1" kernel="1,1" output="24" pads_begin="0,0" pads_end="0,0" strides="1,1"/>
			<input>
				<port id="0">
					<dim>1</dim>
					<dim>256</dim>
					<dim>10</dim>
					<dim>5</dim>
				</port>
			</input>
			<output>
				<port id="3">
					<dim>1</dim>
					<dim>24</dim>
					<dim>10</dim>
					<dim>5</dim>
				</port>
			</output>
			<blobs>
				<weights offset="3040088" size="24576"/>
				<biases offset="3064664" size="96"/>
			</blobs>
		</layer>
		<layer id="140" name="conv4_3/incep/2_reduce/relu" precision="FP32" type="ReLU">
			<data negative_slope="0.0"/>
			<input>
				<port id="0">
					<dim>1</dim>
					<dim>24</dim>
					<dim>10</dim>
					<dim>5</dim>
				</port>
			</input>
			<output>
				<port id="1">
					<dim>1</dim>
					<dim>24</dim>
					<dim>10</dim>
					<dim>5</dim>
				</port>
			</output>
		</layer>
		<layer id="141" name="conv4_3/incep/2_0/conv" precision="FP32" type="Convolution">
			<data dilations="1,1" group="1" kernel="3,3" output="48" pads_begin="1,1" pads_end="1,1" strides="1,1"/>
			<input>
				<port id="0">
					<dim>1</dim>
					<dim>24</dim>
					<dim>10</dim>
					<dim>5</dim>
				</port>
			</input>
			<output>
				<port id="3">
					<dim>1</dim>
					<dim>48</dim>
					<dim>10</dim>
					<dim>5</dim>
				</port>
			</output>
			<blobs>
				<weights offset="3064760" size="41472"/>
				<biases offset="3106232" size="192"/>
			</blobs>
		</layer>
		<layer id="142" name="conv4_3/incep/2_0/relu" precision="FP32" type="ReLU">
			<data negative_slope="0.0"/>
			<input>
				<port id="0">
					<dim>1</dim>
					<dim>48</dim>
					<dim>10</dim>
					<dim>5</dim>
				</port>
			</input>
			<output>
				<port id="1">
					<dim>1</dim>
					<dim>48</dim>
					<dim>10</dim>
					<dim>5</dim>
				</port>
			</output>
		</layer>
		<layer id="143" name="conv4_3/incep/2_1/conv" precision="FP32" type="Convolution">
			<data dilations="1,1" group="1" kernel="3,3" output="48" pads_begin="1,1" pads_end="1,1" strides="1,1"/>
			<input>
				<port id="0">
					<dim>1</dim>
					<dim>48</dim>
					<dim>10</dim>
					<dim>5</dim>
				</port>
			</input>
			<output>
				<port id="3">
					<dim>1</dim>
					<dim>48</dim>
					<dim>10</dim>
					<dim>5</dim>
				</port>
			</output>
			<blobs>
				<weights offset="3106424" size="82944"/>
				<biases offset="3189368" size="192"/>
			</blobs>
		</layer>
		<layer id="144" name="conv4_3/incep/2_1/relu" precision="FP32" type="ReLU">
			<data negative_slope="0.0"/>
			<input>
				<port id="0">
					<dim>1</dim>
					<dim>48</dim>
					<dim>10</dim>
					<dim>5</dim>
				</port>
			</input>
			<output>
				<port id="1">
					<dim>1</dim>
					<dim>48</dim>
					<dim>10</dim>
					<dim>5</dim>
				</port>
			</output>
		</layer>
		<layer id="145" name="conv4_3/incep" precision="FP32" type="Concat">
			<data axis="1"/>
			<input>
				<port id="0">
					<dim>1</dim>
					<dim>64</dim>
					<dim>10</dim>
					<dim>5</dim>
				</port>
				<port id="1">
					<dim>1</dim>
					<dim>128</dim>
					<dim>10</dim>
					<dim>5</dim>
				</port>
				<port id="2">
					<dim>1</dim>
					<dim>48</dim>
					<dim>10</dim>
					<dim>5</dim>
				</port>
			</input>
			<output>
				<port id="3">
					<dim>1</dim>
					<dim>240</dim>
					<dim>10</dim>
					<dim>5</dim>
				</port>
			</output>
		</layer>
		<layer id="146" name="conv4_3/out/conv" precision="FP32" type="Convolution">
			<data dilations="1,1" group="1" kernel="1,1" output="256" pads_begin="0,0" pads_end="0,0" strides="1,1"/>
			<input>
				<port id="0">
					<dim>1</dim>
					<dim>240</dim>
					<dim>10</dim>
					<dim>5</dim>
				</port>
			</input>
			<output>
				<port id="3">
					<dim>1</dim>
					<dim>256</dim>
					<dim>10</dim>
					<dim>5</dim>
				</port>
			</output>
			<blobs>
				<weights offset="3189560" size="245760"/>
				<biases offset="3435320" size="1024"/>
			</blobs>
		</layer>
		<layer id="147" name="conv4_3/input" precision="FP32" type="Power">
			<data power="1.0" scale="1.0" shift="0.0"/>
			<input>
				<port id="0">
					<dim>1</dim>
					<dim>256</dim>
					<dim>10</dim>
					<dim>5</dim>
				</port>
			</input>
			<output>
				<port id="1">
					<dim>1</dim>
					<dim>256</dim>
					<dim>10</dim>
					<dim>5</dim>
				</port>
			</output>
		</layer>
		<layer id="148" name="conv4_3" precision="FP32" type="Eltwise">
			<data coeff="1.0,1.0" operation="sum"/>
			<input>
				<port id="0">
					<dim>1</dim>
					<dim>256</dim>
					<dim>10</dim>
					<dim>5</dim>
				</port>
				<port id="1">
					<dim>1</dim>
					<dim>256</dim>
					<dim>10</dim>
					<dim>5</dim>
				</port>
			</input>
			<output>
				<port id="2">
					<dim>1</dim>
					<dim>256</dim>
					<dim>10</dim>
					<dim>5</dim>
				</port>
			</output>
		</layer>
		<layer id="149" name="Mul_879/Fused_Mul_/FusedScaleShift_" precision="FP32" type="ScaleShift">
			<input>
				<port id="0">
					<dim>1</dim>
					<dim>256</dim>
					<dim>10</dim>
					<dim>5</dim>
				</port>
			</input>
			<output>
				<port id="3">
					<dim>1</dim>
					<dim>256</dim>
					<dim>10</dim>
					<dim>5</dim>
				</port>
			</output>
			<blobs>
				<weights offset="3436344" size="1024"/>
				<biases offset="3437368" size="1024"/>
			</blobs>
		</layer>
		<layer id="150" name="conv4_4/incep/relu" precision="FP32" type="ReLU">
			<data negative_slope="0.0"/>
			<input>
				<port id="0">
					<dim>1</dim>
					<dim>256</dim>
					<dim>10</dim>
					<dim>5</dim>
				</port>
			</input>
			<output>
				<port id="1">
					<dim>1</dim>
					<dim>256</dim>
					<dim>10</dim>
					<dim>5</dim>
				</port>
			</output>
		</layer>
		<layer id="151" name="conv4_4/incep/0/conv" precision="FP32" type="Convolution">
			<data dilations="1,1" group="1" kernel="1,1" output="64" pads_begin="0,0" pads_end="0,0" strides="1,1"/>
			<input>
				<port id="0">
					<dim>1</dim>
					<dim>256</dim>
					<dim>10</dim>
					<dim>5</dim>
				</port>
			</input>
			<output>
				<port id="3">
					<dim>1</dim>
					<dim>64</dim>
					<dim>10</dim>
					<dim>5</dim>
				</port>
			</output>
			<blobs>
				<weights offset="3438392" size="65536"/>
				<biases offset="3503928" size="256"/>
			</blobs>
		</layer>
		<layer id="152" name="conv4_4/incep/0/relu" precision="FP32" type="ReLU">
			<data negative_slope="0.0"/>
			<input>
				<port id="0">
					<dim>1</dim>
					<dim>64</dim>
					<dim>10</dim>
					<dim>5</dim>
				</port>
			</input>
			<output>
				<port id="1">
					<dim>1</dim>
					<dim>64</dim>
					<dim>10</dim>
					<dim>5</dim>
				</port>
			</output>
		</layer>
		<layer id="153" name="conv4_4/incep/1_reduce/conv" precision="FP32" type="Convolution">
			<data dilations="1,1" group="1" kernel="1,1" output="64" pads_begin="0,0" pads_end="0,0" strides="1,1"/>
			<input>
				<port id="0">
					<dim>1</dim>
					<dim>256</dim>
					<dim>10</dim>
					<dim>5</dim>
				</port>
			</input>
			<output>
				<port id="3">
					<dim>1</dim>
					<dim>64</dim>
					<dim>10</dim>
					<dim>5</dim>
				</port>
			</output>
			<blobs>
				<weights offset="3504184" size="65536"/>
				<biases offset="3569720" size="256"/>
			</blobs>
		</layer>
		<layer id="154" name="conv4_4/incep/1_reduce/relu" precision="FP32" type="ReLU">
			<data negative_slope="0.0"/>
			<input>
				<port id="0">
					<dim>1</dim>
					<dim>64</dim>
					<dim>10</dim>
					<dim>5</dim>
				</port>
			</input>
			<output>
				<port id="1">
					<dim>1</dim>
					<dim>64</dim>
					<dim>10</dim>
					<dim>5</dim>
				</port>
			</output>
		</layer>
		<layer id="155" name="conv4_4/incep/1_0/conv" precision="FP32" type="Convolution">
			<data dilations="1,1" group="1" kernel="3,3" output="128" pads_begin="1,1" pads_end="1,1" strides="1,1"/>
			<input>
				<port id="0">
					<dim>1</dim>
					<dim>64</dim>
					<dim>10</dim>
					<dim>5</dim>
				</port>
			</input>
			<output>
				<port id="3">
					<dim>1</dim>
					<dim>128</dim>
					<dim>10</dim>
					<dim>5</dim>
				</port>
			</output>
			<blobs>
				<weights offset="3569976" size="294912"/>
				<biases offset="3864888" size="512"/>
			</blobs>
		</layer>
		<layer id="156" name="conv4_4/incep/1_0/relu" precision="FP32" type="ReLU">
			<data negative_slope="0.0"/>
			<input>
				<port id="0">
					<dim>1</dim>
					<dim>128</dim>
					<dim>10</dim>
					<dim>5</dim>
				</port>
			</input>
			<output>
				<port id="1">
					<dim>1</dim>
					<dim>128</dim>
					<dim>10</dim>
					<dim>5</dim>
				</port>
			</output>
		</layer>
		<layer id="157" name="conv4_4/incep/2_reduce/conv" precision="FP32" type="Convolution">
			<data dilations="1,1" group="1" kernel="1,1" output="24" pads_begin="0,0" pads_end="0,0" strides="1,1"/>
			<input>
				<port id="0">
					<dim>1</dim>
					<dim>256</dim>
					<dim>10</dim>
					<dim>5</dim>
				</port>
			</input>
			<output>
				<port id="3">
					<dim>1</dim>
					<dim>24</dim>
					<dim>10</dim>
					<dim>5</dim>
				</port>
			</output>
			<blobs>
				<weights offset="3865400" size="24576"/>
				<biases offset="3889976" size="96"/>
			</blobs>
		</layer>
		<layer id="158" name="conv4_4/incep/2_reduce/relu" precision="FP32" type="ReLU">
			<data negative_slope="0.0"/>
			<input>
				<port id="0">
					<dim>1</dim>
					<dim>24</dim>
					<dim>10</dim>
					<dim>5</dim>
				</port>
			</input>
			<output>
				<port id="1">
					<dim>1</dim>
					<dim>24</dim>
					<dim>10</dim>
					<dim>5</dim>
				</port>
			</output>
		</layer>
		<layer id="159" name="conv4_4/incep/2_0/conv" precision="FP32" type="Convolution">
			<data dilations="1,1" group="1" kernel="3,3" output="48" pads_begin="1,1" pads_end="1,1" strides="1,1"/>
			<input>
				<port id="0">
					<dim>1</dim>
					<dim>24</dim>
					<dim>10</dim>
					<dim>5</dim>
				</port>
			</input>
			<output>
				<port id="3">
					<dim>1</dim>
					<dim>48</dim>
					<dim>10</dim>
					<dim>5</dim>
				</port>
			</output>
			<blobs>
				<weights offset="3890072" size="41472"/>
				<biases offset="3931544" size="192"/>
			</blobs>
		</layer>
		<layer id="160" name="conv4_4/incep/2_0/relu" precision="FP32" type="ReLU">
			<data negative_slope="0.0"/>
			<input>
				<port id="0">
					<dim>1</dim>
					<dim>48</dim>
					<dim>10</dim>
					<dim>5</dim>
				</port>
			</input>
			<output>
				<port id="1">
					<dim>1</dim>
					<dim>48</dim>
					<dim>10</dim>
					<dim>5</dim>
				</port>
			</output>
		</layer>
		<layer id="161" name="conv4_4/incep/2_1/conv" precision="FP32" type="Convolution">
			<data dilations="1,1" group="1" kernel="3,3" output="48" pads_begin="1,1" pads_end="1,1" strides="1,1"/>
			<input>
				<port id="0">
					<dim>1</dim>
					<dim>48</dim>
					<dim>10</dim>
					<dim>5</dim>
				</port>
			</input>
			<output>
				<port id="3">
					<dim>1</dim>
					<dim>48</dim>
					<dim>10</dim>
					<dim>5</dim>
				</port>
			</output>
			<blobs>
				<weights offset="3931736" size="82944"/>
				<biases offset="4014680" size="192"/>
			</blobs>
		</layer>
		<layer id="162" name="conv4_4/incep/2_1/relu" precision="FP32" type="ReLU">
			<data negative_slope="0.0"/>
			<input>
				<port id="0">
					<dim>1</dim>
					<dim>48</dim>
					<dim>10</dim>
					<dim>5</dim>
				</port>
			</input>
			<output>
				<port id="1">
					<dim>1</dim>
					<dim>48</dim>
					<dim>10</dim>
					<dim>5</dim>
				</port>
			</output>
		</layer>
		<layer id="163" name="conv4_4/incep" precision="FP32" type="Concat">
			<data axis="1"/>
			<input>
				<port id="0">
					<dim>1</dim>
					<dim>64</dim>
					<dim>10</dim>
					<dim>5</dim>
				</port>
				<port id="1">
					<dim>1</dim>
					<dim>128</dim>
					<dim>10</dim>
					<dim>5</dim>
				</port>
				<port id="2">
					<dim>1</dim>
					<dim>48</dim>
					<dim>10</dim>
					<dim>5</dim>
				</port>
			</input>
			<output>
				<port id="3">
					<dim>1</dim>
					<dim>240</dim>
					<dim>10</dim>
					<dim>5</dim>
				</port>
			</output>
		</layer>
		<layer id="164" name="conv4_4/out/conv" precision="FP32" type="Convolution">
			<data dilations="1,1" group="1" kernel="1,1" output="256" pads_begin="0,0" pads_end="0,0" strides="1,1"/>
			<input>
				<port id="0">
					<dim>1</dim>
					<dim>240</dim>
					<dim>10</dim>
					<dim>5</dim>
				</port>
			</input>
			<output>
				<port id="3">
					<dim>1</dim>
					<dim>256</dim>
					<dim>10</dim>
					<dim>5</dim>
				</port>
			</output>
			<blobs>
				<weights offset="4014872" size="245760"/>
				<biases offset="4260632" size="1024"/>
			</blobs>
		</layer>
		<layer id="165" name="conv4_4/input" precision="FP32" type="Power">
			<data power="1.0" scale="1.0" shift="0.0"/>
			<input>
				<port id="0">
					<dim>1</dim>
					<dim>256</dim>
					<dim>10</dim>
					<dim>5</dim>
				</port>
			</input>
			<output>
				<port id="1">
					<dim>1</dim>
					<dim>256</dim>
					<dim>10</dim>
					<dim>5</dim>
				</port>
			</output>
		</layer>
		<layer id="166" name="conv4_4" precision="FP32" type="Eltwise">
			<data coeff="1.0,1.0" operation="sum"/>
			<input>
				<port id="0">
					<dim>1</dim>
					<dim>256</dim>
					<dim>10</dim>
					<dim>5</dim>
				</port>
				<port id="1">
					<dim>1</dim>
					<dim>256</dim>
					<dim>10</dim>
					<dim>5</dim>
				</port>
			</input>
			<output>
				<port id="2">
					<dim>1</dim>
					<dim>256</dim>
					<dim>10</dim>
					<dim>5</dim>
				</port>
			</output>
		</layer>
		<layer id="167" name="Convolution_red" precision="FP32" type="Convolution">
			<data dilations="1,1" group="1" kernel="1,1" output="256" pads_begin="0,0" pads_end="0,0" strides="2,2"/>
			<input>
				<port id="0">
					<dim>1</dim>
					<dim>128</dim>
					<dim>20</dim>
					<dim>10</dim>
				</port>
			</input>
			<output>
				<port id="2">
					<dim>1</dim>
					<dim>256</dim>
					<dim>10</dim>
					<dim>5</dim>
				</port>
			</output>
			<blobs>
				<weights offset="4261656" size="131072"/>
			</blobs>
		</layer>
		<layer id="168" name="hyperfeature" precision="FP32" type="Concat">
			<data axis="1"/>
			<input>
				<port id="0">
					<dim>1</dim>
					<dim>256</dim>
					<dim>10</dim>
					<dim>5</dim>
				</port>
				<port id="1">
					<dim>1</dim>
					<dim>256</dim>
					<dim>10</dim>
					<dim>5</dim>
				</port>
			</input>
			<output>
				<port id="2">
					<dim>1</dim>
					<dim>512</dim>
					<dim>10</dim>
					<dim>5</dim>
				</port>
			</output>
		</layer>
		<layer id="169" name="Convolution12__" precision="FP32" type="Convolution">
			<data dilations="1,1" group="1" kernel="1,1" output="6" pads_begin="0,0" pads_end="0,0" strides="1,1"/>
			<input>
				<port id="0">
					<dim>1</dim>
					<dim>512</dim>
					<dim>10</dim>
					<dim>5</dim>
				</port>
			</input>
			<output>
				<port id="2">
					<dim>1</dim>
					<dim>6</dim>
					<dim>10</dim>
					<dim>5</dim>
				</port>
			</output>
			<blobs>
				<weights offset="4392728" size="12288"/>
			</blobs>
		</layer>
		<layer id="170" name="fc_attrib" precision="FP32" type="Pooling">
			<data exclude-pad="false" kernel="10,5" pads_begin="0,0" pads_end="0,0" pool-method="max" rounding_type="ceil" strides="1,1"/>
			<input>
				<port id="0">
					<dim>1</dim>
					<dim>6</dim>
					<dim>10</dim>
					<dim>5</dim>
				</port>
			</input>
			<output>
				<port id="1">
					<dim>1</dim>
					<dim>6</dim>
					<dim>1</dim>
					<dim>1</dim>
				</port>
			</output>
		</layer>
		<layer id="171" name="sigmoid" precision="FP32" type="Activation">
			<data type="sigmoid"/>
			<input>
				<port id="0">
					<dim>1</dim>
					<dim>6</dim>
					<dim>1</dim>
					<dim>1</dim>
				</port>
			</input>
			<output>
				<port id="1">
					<dim>1</dim>
					<dim>6</dim>
					<dim>1</dim>
					<dim>1</dim>
				</port>
			</output>
		</layer>
	</layers>
	<edges>
		<edge from-layer="0" from-port="0" to-layer="1" to-port="0"/>
		<edge from-layer="1" from-port="3" to-layer="2" to-port="0"/>
		<edge from-layer="2" from-port="3" to-layer="3" to-port="0"/>
		<edge from-layer="2" from-port="3" to-layer="4" to-port="0"/>
		<edge from-layer="3" from-port="1" to-layer="4" to-port="1"/>
		<edge from-layer="4" from-port="2" to-layer="5" to-port="0"/>
		<edge from-layer="5" from-port="3" to-layer="6" to-port="0"/>
		<edge from-layer="6" from-port="1" to-layer="7" to-port="0"/>
		<edge from-layer="7" from-port="1" to-layer="8" to-port="0"/>
		<edge from-layer="8" from-port="3" to-layer="9" to-port="0"/>
		<edge from-layer="9" from-port="1" to-layer="10" to-port="0"/>
		<edge from-layer="10" from-port="3" to-layer="11" to-port="0"/>
		<edge from-layer="10" from-port="3" to-layer="12" to-port="0"/>
		<edge from-layer="11" from-port="1" to-layer="12" to-port="1"/>
		<edge from-layer="12" from-port="2" to-layer="13" to-port="0"/>
		<edge from-layer="13" from-port="3" to-layer="14" to-port="0"/>
		<edge from-layer="14" from-port="1" to-layer="15" to-port="0"/>
		<edge from-layer="7" from-port="1" to-layer="16" to-port="0"/>
		<edge from-layer="15" from-port="3" to-layer="17" to-port="0"/>
		<edge from-layer="16" from-port="3" to-layer="17" to-port="1"/>
		<edge from-layer="17" from-port="2" to-layer="18" to-port="0"/>
		<edge from-layer="18" from-port="3" to-layer="19" to-port="0"/>
		<edge from-layer="19" from-port="1" to-layer="20" to-port="0"/>
		<edge from-layer="20" from-port="3" to-layer="21" to-port="0"/>
		<edge from-layer="21" from-port="1" to-layer="22" to-port="0"/>
		<edge from-layer="22" from-port="3" to-layer="23" to-port="0"/>
		<edge from-layer="22" from-port="3" to-layer="24" to-port="0"/>
		<edge from-layer="23" from-port="1" to-layer="24" to-port="1"/>
		<edge from-layer="24" from-port="2" to-layer="25" to-port="0"/>
		<edge from-layer="25" from-port="3" to-layer="26" to-port="0"/>
		<edge from-layer="26" from-port="1" to-layer="27" to-port="0"/>
		<edge from-layer="17" from-port="2" to-layer="28" to-port="0"/>
		<edge from-layer="27" from-port="3" to-layer="29" to-port="0"/>
		<edge from-layer="28" from-port="1" to-layer="29" to-port="1"/>
		<edge from-layer="29" from-port="2" to-layer="30" to-port="0"/>
		<edge from-layer="30" from-port="3" to-layer="31" to-port="0"/>
		<edge from-layer="31" from-port="1" to-layer="32" to-port="0"/>
		<edge from-layer="32" from-port="3" to-layer="33" to-port="0"/>
		<edge from-layer="33" from-port="1" to-layer="34" to-port="0"/>
		<edge from-layer="34" from-port="3" to-layer="35" to-port="0"/>
		<edge from-layer="34" from-port="3" to-layer="36" to-port="0"/>
		<edge from-layer="35" from-port="1" to-layer="36" to-port="1"/>
		<edge from-layer="36" from-port="2" to-layer="37" to-port="0"/>
		<edge from-layer="37" from-port="1" to-layer="38" to-port="0"/>
		<edge from-layer="38" from-port="3" to-layer="39" to-port="0"/>
		<edge from-layer="39" from-port="1" to-layer="40" to-port="0"/>
		<edge from-layer="29" from-port="2" to-layer="41" to-port="0"/>
		<edge from-layer="41" from-port="1" to-layer="42" to-port="0"/>
		<edge from-layer="40" from-port="3" to-layer="43" to-port="0"/>
		<edge from-layer="42" from-port="1" to-layer="43" to-port="1"/>
		<edge from-layer="43" from-port="2" to-layer="44" to-port="0"/>
		<edge from-layer="44" from-port="3" to-layer="45" to-port="0"/>
		<edge from-layer="45" from-port="1" to-layer="46" to-port="0"/>
		<edge from-layer="46" from-port="3" to-layer="47" to-port="0"/>
		<edge from-layer="47" from-port="1" to-layer="48" to-port="0"/>
		<edge from-layer="48" from-port="3" to-layer="49" to-port="0"/>
		<edge from-layer="48" from-port="3" to-layer="50" to-port="0"/>
		<edge from-layer="49" from-port="1" to-layer="50" to-port="1"/>
		<edge from-layer="50" from-port="2" to-layer="51" to-port="0"/>
		<edge from-layer="51" from-port="3" to-layer="52" to-port="0"/>
		<edge from-layer="52" from-port="1" to-layer="53" to-port="0"/>
		<edge from-layer="45" from-port="1" to-layer="54" to-port="0"/>
		<edge from-layer="53" from-port="3" to-layer="55" to-port="0"/>
		<edge from-layer="54" from-port="3" to-layer="55" to-port="1"/>
		<edge from-layer="55" from-port="2" to-layer="56" to-port="0"/>
		<edge from-layer="56" from-port="3" to-layer="57" to-port="0"/>
		<edge from-layer="57" from-port="1" to-layer="58" to-port="0"/>
		<edge from-layer="58" from-port="3" to-layer="59" to-port="0"/>
		<edge from-layer="59" from-port="1" to-layer="60" to-port="0"/>
		<edge from-layer="60" from-port="3" to-layer="61" to-port="0"/>
		<edge from-layer="60" from-port="3" to-layer="62" to-port="0"/>
		<edge from-layer="61" from-port="1" to-layer="62" to-port="1"/>
		<edge from-layer="62" from-port="2" to-layer="63" to-port="0"/>
		<edge from-layer="63" from-port="3" to-layer="64" to-port="0"/>
		<edge from-layer="64" from-port="1" to-layer="65" to-port="0"/>
		<edge from-layer="55" from-port="2" to-layer="66" to-port="0"/>
		<edge from-layer="65" from-port="3" to-layer="67" to-port="0"/>
		<edge from-layer="66" from-port="1" to-layer="67" to-port="1"/>
		<edge from-layer="67" from-port="2" to-layer="68" to-port="0"/>
		<edge from-layer="68" from-port="3" to-layer="69" to-port="0"/>
		<edge from-layer="69" from-port="1" to-layer="70" to-port="0"/>
		<edge from-layer="70" from-port="3" to-layer="71" to-port="0"/>
		<edge from-layer="71" from-port="1" to-layer="72" to-port="0"/>
		<edge from-layer="72" from-port="3" to-layer="73" to-port="0"/>
		<edge from-layer="72" from-port="3" to-layer="74" to-port="0"/>
		<edge from-layer="73" from-port="1" to-layer="74" to-port="1"/>
		<edge from-layer="74" from-port="2" to-layer="75" to-port="0"/>
		<edge from-layer="75" from-port="3" to-layer="76" to-port="0"/>
		<edge from-layer="76" from-port="1" to-layer="77" to-port="0"/>
		<edge from-layer="67" from-port="2" to-layer="78" to-port="0"/>
		<edge from-layer="77" from-port="3" to-layer="79" to-port="0"/>
		<edge from-layer="78" from-port="1" to-layer="79" to-port="1"/>
		<edge from-layer="79" from-port="2" to-layer="80" to-port="0"/>
		<edge from-layer="80" from-port="3" to-layer="81" to-port="0"/>
		<edge from-layer="81" from-port="1" to-layer="82" to-port="0"/>
		<edge from-layer="82" from-port="3" to-layer="83" to-port="0"/>
		<edge from-layer="83" from-port="1" to-layer="84" to-port="0"/>
		<edge from-layer="84" from-port="3" to-layer="85" to-port="0"/>
		<edge from-layer="84" from-port="3" to-layer="86" to-port="0"/>
		<edge from-layer="85" from-port="1" to-layer="86" to-port="1"/>
		<edge from-layer="86" from-port="2" to-layer="87" to-port="0"/>
		<edge from-layer="87" from-port="3" to-layer="88" to-port="0"/>
		<edge from-layer="88" from-port="1" to-layer="89" to-port="0"/>
		<edge from-layer="79" from-port="2" to-layer="90" to-port="0"/>
		<edge from-layer="89" from-port="3" to-layer="91" to-port="0"/>
		<edge from-layer="90" from-port="1" to-layer="91" to-port="1"/>
		<edge from-layer="91" from-port="2" to-layer="92" to-port="0"/>
		<edge from-layer="92" from-port="3" to-layer="93" to-port="0"/>
		<edge from-layer="93" from-port="1" to-layer="94" to-port="0"/>
		<edge from-layer="94" from-port="3" to-layer="95" to-port="0"/>
		<edge from-layer="93" from-port="1" to-layer="96" to-port="0"/>
		<edge from-layer="96" from-port="3" to-layer="97" to-port="0"/>
		<edge from-layer="97" from-port="1" to-layer="98" to-port="0"/>
		<edge from-layer="98" from-port="3" to-layer="99" to-port="0"/>
		<edge from-layer="93" from-port="1" to-layer="100" to-port="0"/>
		<edge from-layer="100" from-port="3" to-layer="101" to-port="0"/>
		<edge from-layer="101" from-port="1" to-layer="102" to-port="0"/>
		<edge from-layer="102" from-port="3" to-layer="103" to-port="0"/>
		<edge from-layer="103" from-port="1" to-layer="104" to-port="0"/>
		<edge from-layer="104" from-port="3" to-layer="105" to-port="0"/>
		<edge from-layer="93" from-port="1" to-layer="106" to-port="0"/>
		<edge from-layer="106" from-port="1" to-layer="107" to-port="0"/>
		<edge from-layer="107" from-port="3" to-layer="108" to-port="0"/>
		<edge from-layer="95" from-port="1" to-layer="109" to-port="0"/>
		<edge from-layer="99" from-port="1" to-layer="109" to-port="1"/>
		<edge from-layer="105" from-port="1" to-layer="109" to-port="2"/>
		<edge from-layer="108" from-port="1" to-layer="109" to-port="3"/>
		<edge from-layer="109" from-port="4" to-layer="110" to-port="0"/>
		<edge from-layer="91" from-port="2" to-layer="111" to-port="0"/>
		<edge from-layer="110" from-port="3" to-layer="112" to-port="0"/>
		<edge from-layer="111" from-port="3" to-layer="112" to-port="1"/>
		<edge from-layer="112" from-port="2" to-layer="113" to-port="0"/>
		<edge from-layer="113" from-port="3" to-layer="114" to-port="0"/>
		<edge from-layer="114" from-port="1" to-layer="115" to-port="0"/>
		<edge from-layer="115" from-port="3" to-layer="116" to-port="0"/>
		<edge from-layer="114" from-port="1" to-layer="117" to-port="0"/>
		<edge from-layer="117" from-port="3" to-layer="118" to-port="0"/>
		<edge from-layer="118" from-port="1" to-layer="119" to-port="0"/>
		<edge from-layer="119" from-port="3" to-layer="120" to-port="0"/>
		<edge from-layer="114" from-port="1" to-layer="121" to-port="0"/>
		<edge from-layer="121" from-port="3" to-layer="122" to-port="0"/>
		<edge from-layer="122" from-port="1" to-layer="123" to-port="0"/>
		<edge from-layer="123" from-port="3" to-layer="124" to-port="0"/>
		<edge from-layer="124" from-port="1" to-layer="125" to-port="0"/>
		<edge from-layer="125" from-port="3" to-layer="126" to-port="0"/>
		<edge from-layer="116" from-port="1" to-layer="127" to-port="0"/>
		<edge from-layer="120" from-port="1" to-layer="127" to-port="1"/>
		<edge from-layer="126" from-port="1" to-layer="127" to-port="2"/>
		<edge from-layer="127" from-port="3" to-layer="128" to-port="0"/>
		<edge from-layer="112" from-port="2" to-layer="129" to-port="0"/>
		<edge from-layer="128" from-port="3" to-layer="130" to-port="0"/>
		<edge from-layer="129" from-port="1" to-layer="130" to-port="1"/>
		<edge from-layer="130" from-port="2" to-layer="131" to-port="0"/>
		<edge from-layer="131" from-port="3" to-layer="132" to-port="0"/>
		<edge from-layer="132" from-port="1" to-layer="133" to-port="0"/>
		<edge from-layer="133" from-port="3" to-layer="134" to-port="0"/>
		<edge from-layer="132" from-port="1" to-layer="135" to-port="0"/>
		<edge from-layer="135" from-port="3" to-layer="136" to-port="0"/>
		<edge from-layer="136" from-port="1" to-layer="137" to-port="0"/>
		<edge from-layer="137" from-port="3" to-layer="138" to-port="0"/>
		<edge from-layer="132" from-port="1" to-layer="139" to-port="0"/>
		<edge from-layer="139" from-port="3" to-layer="140" to-port="0"/>
		<edge from-layer="140" from-port="1" to-layer="141" to-port="0"/>
		<edge from-layer="141" from-port="3" to-layer="142" to-port="0"/>
		<edge from-layer="142" from-port="1" to-layer="143" to-port="0"/>
		<edge from-layer="143" from-port="3" to-layer="144" to-port="0"/>
		<edge from-layer="134" from-port="1" to-layer="145" to-port="0"/>
		<edge from-layer="138" from-port="1" to-layer="145" to-port="1"/>
		<edge from-layer="144" from-port="1" to-layer="145" to-port="2"/>
		<edge from-layer="145" from-port="3" to-layer="146" to-port="0"/>
		<edge from-layer="130" from-port="2" to-layer="147" to-port="0"/>
		<edge from-layer="146" from-port="3" to-layer="148" to-port="0"/>
		<edge from-layer="147" from-port="1" to-layer="148" to-port="1"/>
		<edge from-layer="148" from-port="2" to-layer="149" to-port="0"/>
		<edge from-layer="149" from-port="3" to-layer="150" to-port="0"/>
		<edge from-layer="150" from-port="1" to-layer="151" to-port="0"/>
		<edge from-layer="151" from-port="3" to-layer="152" to-port="0"/>
		<edge from-layer="150" from-port="1" to-layer="153" to-port="0"/>
		<edge from-layer="153" from-port="3" to-layer="154" to-port="0"/>
		<edge from-layer="154" from-port="1" to-layer="155" to-port="0"/>
		<edge from-layer="155" from-port="3" to-layer="156" to-port="0"/>
		<edge from-layer="150" from-port="1" to-layer="157" to-port="0"/>
		<edge from-layer="157" from-port="3" to-layer="158" to-port="0"/>
		<edge from-layer="158" from-port="1" to-layer="159" to-port="0"/>
		<edge from-layer="159" from-port="3" to-layer="160" to-port="0"/>
		<edge from-layer="160" from-port="1" to-layer="161" to-port="0"/>
		<edge from-layer="161" from-port="3" to-layer="162" to-port="0"/>
		<edge from-layer="152" from-port="1" to-layer="163" to-port="0"/>
		<edge from-layer="156" from-port="1" to-layer="163" to-port="1"/>
		<edge from-layer="162" from-port="1" to-layer="163" to-port="2"/>
		<edge from-layer="163" from-port="3" to-layer="164" to-port="0"/>
		<edge from-layer="148" from-port="2" to-layer="165" to-port="0"/>
		<edge from-layer="164" from-port="3" to-layer="166" to-port="0"/>
		<edge from-layer="165" from-port="1" to-layer="166" to-port="1"/>
		<edge from-layer="91" from-port="2" to-layer="167" to-port="0"/>
		<edge from-layer="166" from-port="2" to-layer="168" to-port="0"/>
		<edge from-layer="167" from-port="2" to-layer="168" to-port="1"/>
		<edge from-layer="168" from-port="2" to-layer="169" to-port="0"/>
		<edge from-layer="169" from-port="2" to-layer="170" to-port="0"/>
		<edge from-layer="170" from-port="1" to-layer="171" to-port="0"/>
	</edges>
	<meta_data>
		<MO_version value="1.4.288.16472e37"/>
		<cli_parameters>
			<data_type value="FP32"/>
			<disable_fusing value="False"/>
			<disable_gfusing value="False"/>
			<disable_nhwc_to_nchw value="False"/>
			<disable_omitting_optional value="False"/>
			<disable_resnet_optimization value="False"/>
			<enable_flattening_nested_params value="False"/>
			<extensions value="DIR"/>
			<framework value="caffe"/>
			<generate_deprecated_IR_V2 value="False"/>
			<input value="data"/>
			<input_model value="DIR/person-attributes-recognition-crossroad-0031.caffemodel"/>
			<input_model_is_text value="False"/>
			<input_proto value="DIR/person-attributes-recognition-crossroad-0031.prototxt"/>
			<input_shape value="[1,3,160,80]"/>
			<k value="DIR/CustomLayersMapping.xml"/>
			<legacy_mxnet_model value="False"/>
			<log_level value="ERROR"/>
			<mean_values value="data[128.0,128.0,128.0]"/>
			<model_name value="person-attributes-recognition-crossroad-0031"/>
			<move_to_preprocess value="False"/>
			<offload_unsupported_operations_to_tf value="False"/>
			<output value="sigmoid"/>
			<output_dir value="DIR"/>
			<remove_output_softmax value="False"/>
			<reverse_input_channels value="False"/>
			<save_params_from_nd value="False"/>
			<scale_values value="data[254.99991075003123]"/>
			<silent value="False"/>
			<version value="False"/>
			<unset unset_cli_parameters="batch, counts, finegrain_fusing, freeze_placeholder_with_value, input_checkpoint, input_meta_graph, input_symbol, mean_file, mean_file_offsets, nd_prefix_name, pretrained_model_name, saved_model_dir, saved_model_tags, scale, tensorboard_logdir, tensorflow_custom_layer_libraries, tensorflow_custom_operations_config_update, tensorflow_object_detection_api_pipeline_config, tensorflow_operation_patterns, tensorflow_subgraph_patterns, tensorflow_use_custom_operations_config"/>
		</cli_parameters>
	</meta_data>
</net>
